{
    "format": "graph-model",
    "generatedBy": "2.11.0",
    "convertedBy": "TensorFlow.js Converter v4.2.0",
    "signature": {
        "inputs": {
            "token_type_ids:0": {
                "name": "token_type_ids:0",
                "dtype": "DT_INT32",
                "tensorShape": {
                    "dim": [
                        {
                            "size": "-1"
                        },
                        {
                            "size": "-1"
                        }
                    ]
                }
            },
            "attention_mask:0": {
                "name": "attention_mask:0",
                "dtype": "DT_INT32",
                "tensorShape": {
                    "dim": [
                        {
                            "size": "-1"
                        },
                        {
                            "size": "-1"
                        }
                    ]
                }
            },
            "input_ids:0": {
                "name": "input_ids:0",
                "dtype": "DT_INT32",
                "tensorShape": {
                    "dim": [
                        {
                            "size": "-1"
                        },
                        {
                            "size": "-1"
                        }
                    ]
                }
            },
            "segment_ids:0": {
                "name": "segment_ids:0",
                "dtype": "DT_INT32",
                "tensorShape": {
                    "dim": [
                        {
                            "size": "1"
                        },
                        {
                            "size": "-1"
                        }
                    ]
                }
            },
            "input_mask:0": {
                "name": "input_mask:0",
                "dtype": "DT_INT32",
                "tensorShape": {
                    "dim": [
                        {
                            "size": "1"
                        },
                        {
                            "size": "-1"
                        }
                    ]
                }
            },
            "global_step:0": {
                "name": "global_step:0",
                "dtype": "DT_INT32",
                "tensorShape": {}
            }
        },
        "outputs": {
            "Identity_1:0": {
                "name": "Identity_1:0",
                "dtype": "DT_FLOAT",
                "tensorShape": {
                    "dim": [
                        {
                            "size": "-1"
                        },
                        {
                            "size": "-1"
                        }
                    ]
                }
            },
            "Identity:0": {
                "name": "Identity:0",
                "dtype": "DT_FLOAT",
                "tensorShape": {
                    "dim": [
                        {
                            "size": "-1"
                        },
                        {
                            "size": "-1"
                        }
                    ]
                }
            }
        }
    },
    "modelTopology": {
        "node": [
            {
                "name": "tf_bert_for_question_answering_1/split/split_dim",
                "op": "Const",
                "attr": {
                    "value": {
                        "tensor": {
                            "dtype": "DT_INT32",
                            "tensorShape": {}
                        }
                    },
                    "dtype": {
                        "type": "DT_INT32"
                    }
                }
            },
            {
                "name": "tf_bert_for_question_answering_1/qa_outputs/Tensordot/Const",
                "op": "Const",
                "attr": {
                    "dtype": {
                        "type": "DT_INT32"
                    },
                    "value": {
                        "tensor": {
                            "dtype": "DT_INT32",
                            "tensorShape": {
                                "dim": [
                                    {
                                        "size": "1"
                                    }
                                ]
                            }
                        }
                    }
                }
            },
            {
                "name": "tf_bert_for_question_answering_1/qa_outputs/Tensordot/axes",
                "op": "Const",
                "attr": {
                    "value": {
                        "tensor": {
                            "dtype": "DT_INT32",
                            "tensorShape": {
                                "dim": [
                                    {
                                        "size": "1"
                                    }
                                ]
                            }
                        }
                    },
                    "dtype": {
                        "type": "DT_INT32"
                    }
                }
            },
            {
                "name": "tf_bert_for_question_answering_1/qa_outputs/Tensordot/GatherV2_1/axis",
                "op": "Const",
                "attr": {
                    "dtype": {
                        "type": "DT_INT32"
                    },
                    "value": {
                        "tensor": {
                            "dtype": "DT_INT32",
                            "tensorShape": {}
                        }
                    }
                }
            },
            {
                "name": "tf_bert_for_question_answering_1/qa_outputs/Tensordot/Const_1",
                "op": "Const",
                "attr": {
                    "dtype": {
                        "type": "DT_INT32"
                    },
                    "value": {
                        "tensor": {
                            "dtype": "DT_INT32",
                            "tensorShape": {
                                "dim": [
                                    {
                                        "size": "1"
                                    }
                                ]
                            }
                        }
                    }
                }
            },
            {
                "name": "tf_bert_for_question_answering_1/qa_outputs/Tensordot/ReadVariableOp",
                "op": "Const",
                "attr": {
                    "value": {
                        "tensor": {
                            "dtype": "DT_FLOAT",
                            "tensorShape": {
                                "dim": [
                                    {
                                        "size": "768"
                                    },
                                    {
                                        "size": "2"
                                    }
                                ]
                            }
                        }
                    },
                    "dtype": {
                        "type": "DT_FLOAT"
                    }
                }
            },
            {
                "name": "tf_bert_for_question_answering_1/bert/encoder/layer_._11/output/LayerNorm/batchnorm/ReadVariableOp",
                "op": "Const",
                "attr": {
                    "value": {
                        "tensor": {
                            "dtype": "DT_FLOAT",
                            "tensorShape": {
                                "dim": [
                                    {
                                        "size": "768"
                                    }
                                ]
                            }
                        }
                    },
                    "dtype": {
                        "type": "DT_FLOAT"
                    }
                }
            },
            {
                "name": "tf_bert_for_question_answering_1/bert/encoder/layer_._11/output/dense/Tensordot/Const",
                "op": "Const",
                "attr": {
                    "dtype": {
                        "type": "DT_INT32"
                    },
                    "value": {
                        "tensor": {
                            "dtype": "DT_INT32",
                            "tensorShape": {
                                "dim": [
                                    {
                                        "size": "1"
                                    }
                                ]
                            }
                        }
                    }
                }
            },
            {
                "name": "tf_bert_for_question_answering_1/bert/encoder/layer_._11/output/dense/Tensordot/axes",
                "op": "Const",
                "attr": {
                    "dtype": {
                        "type": "DT_INT32"
                    },
                    "value": {
                        "tensor": {
                            "dtype": "DT_INT32",
                            "tensorShape": {
                                "dim": [
                                    {
                                        "size": "1"
                                    }
                                ]
                            }
                        }
                    }
                }
            },
            {
                "name": "tf_bert_for_question_answering_1/bert/encoder/layer_._11/output/dense/Tensordot/GatherV2_1/axis",
                "op": "Const",
                "attr": {
                    "value": {
                        "tensor": {
                            "dtype": "DT_INT32",
                            "tensorShape": {}
                        }
                    },
                    "dtype": {
                        "type": "DT_INT32"
                    }
                }
            },
            {
                "name": "tf_bert_for_question_answering_1/bert/encoder/layer_._11/output/dense/Tensordot/Const_1",
                "op": "Const",
                "attr": {
                    "dtype": {
                        "type": "DT_INT32"
                    },
                    "value": {
                        "tensor": {
                            "dtype": "DT_INT32",
                            "tensorShape": {
                                "dim": [
                                    {
                                        "size": "1"
                                    }
                                ]
                            }
                        }
                    }
                }
            },
            {
                "name": "tf_bert_for_question_answering_1/bert/encoder/layer_._11/output/dense/Tensordot/ReadVariableOp",
                "op": "Const",
                "attr": {
                    "value": {
                        "tensor": {
                            "dtype": "DT_FLOAT",
                            "tensorShape": {
                                "dim": [
                                    {
                                        "size": "3072"
                                    },
                                    {
                                        "size": "768"
                                    }
                                ]
                            }
                        }
                    },
                    "dtype": {
                        "type": "DT_FLOAT"
                    }
                }
            },
            {
                "name": "tf_bert_for_question_answering_1/bert/encoder/layer_._11/intermediate/Gelu/mul/x",
                "op": "Const",
                "attr": {
                    "value": {
                        "tensor": {
                            "dtype": "DT_FLOAT",
                            "tensorShape": {}
                        }
                    },
                    "dtype": {
                        "type": "DT_FLOAT"
                    }
                }
            },
            {
                "name": "tf_bert_for_question_answering_1/bert/encoder/layer_._11/intermediate/Gelu/add/x",
                "op": "Const",
                "attr": {
                    "dtype": {
                        "type": "DT_FLOAT"
                    },
                    "value": {
                        "tensor": {
                            "dtype": "DT_FLOAT",
                            "tensorShape": {}
                        }
                    }
                }
            },
            {
                "name": "tf_bert_for_question_answering_1/bert/encoder/layer_._11/intermediate/dense/Tensordot/Const",
                "op": "Const",
                "attr": {
                    "dtype": {
                        "type": "DT_INT32"
                    },
                    "value": {
                        "tensor": {
                            "dtype": "DT_INT32",
                            "tensorShape": {
                                "dim": [
                                    {
                                        "size": "1"
                                    }
                                ]
                            }
                        }
                    }
                }
            },
            {
                "name": "tf_bert_for_question_answering_1/bert/encoder/layer_._11/intermediate/dense/Tensordot/axes",
                "op": "Const",
                "attr": {
                    "value": {
                        "tensor": {
                            "dtype": "DT_INT32",
                            "tensorShape": {
                                "dim": [
                                    {
                                        "size": "1"
                                    }
                                ]
                            }
                        }
                    },
                    "dtype": {
                        "type": "DT_INT32"
                    }
                }
            },
            {
                "name": "tf_bert_for_question_answering_1/bert/encoder/layer_._11/intermediate/dense/Tensordot/GatherV2_1/axis",
                "op": "Const",
                "attr": {
                    "dtype": {
                        "type": "DT_INT32"
                    },
                    "value": {
                        "tensor": {
                            "dtype": "DT_INT32",
                            "tensorShape": {}
                        }
                    }
                }
            },
            {
                "name": "tf_bert_for_question_answering_1/bert/encoder/layer_._11/intermediate/dense/Tensordot/Const_1",
                "op": "Const",
                "attr": {
                    "value": {
                        "tensor": {
                            "dtype": "DT_INT32",
                            "tensorShape": {
                                "dim": [
                                    {
                                        "size": "1"
                                    }
                                ]
                            }
                        }
                    },
                    "dtype": {
                        "type": "DT_INT32"
                    }
                }
            },
            {
                "name": "tf_bert_for_question_answering_1/bert/encoder/layer_._11/intermediate/dense/Tensordot/ReadVariableOp",
                "op": "Const",
                "attr": {
                    "value": {
                        "tensor": {
                            "dtype": "DT_FLOAT",
                            "tensorShape": {
                                "dim": [
                                    {
                                        "size": "768"
                                    },
                                    {
                                        "size": "3072"
                                    }
                                ]
                            }
                        }
                    },
                    "dtype": {
                        "type": "DT_FLOAT"
                    }
                }
            },
            {
                "name": "tf_bert_for_question_answering_1/bert/encoder/layer_._11/intermediate/dense/Tensordot/free",
                "op": "Const",
                "attr": {
                    "value": {
                        "tensor": {
                            "dtype": "DT_INT32",
                            "tensorShape": {
                                "dim": [
                                    {
                                        "size": "2"
                                    }
                                ]
                            }
                        }
                    },
                    "dtype": {
                        "type": "DT_INT32"
                    }
                }
            },
            {
                "name": "tf_bert_for_question_answering_1/bert/encoder/layer_._11/intermediate/dense/Tensordot/GatherV2/axis",
                "op": "Const",
                "attr": {
                    "dtype": {
                        "type": "DT_INT32"
                    },
                    "value": {
                        "tensor": {
                            "dtype": "DT_INT32",
                            "tensorShape": {}
                        }
                    }
                }
            },
            {
                "name": "tf_bert_for_question_answering_1/bert/encoder/layer_._11/intermediate/dense/Tensordot/Const_2",
                "op": "Const",
                "attr": {
                    "value": {
                        "tensor": {
                            "dtype": "DT_INT32",
                            "tensorShape": {
                                "dim": [
                                    {
                                        "size": "1"
                                    }
                                ]
                            }
                        }
                    },
                    "dtype": {
                        "type": "DT_INT32"
                    }
                }
            },
            {
                "name": "tf_bert_for_question_answering_1/bert/encoder/layer_._11/intermediate/dense/Tensordot/concat_1/axis",
                "op": "Const",
                "attr": {
                    "value": {
                        "tensor": {
                            "dtype": "DT_INT32",
                            "tensorShape": {}
                        }
                    },
                    "dtype": {
                        "type": "DT_INT32"
                    }
                }
            },
            {
                "name": "tf_bert_for_question_answering_1/bert/encoder/layer_._11/intermediate/dense/BiasAdd/ReadVariableOp",
                "op": "Const",
                "attr": {
                    "dtype": {
                        "type": "DT_FLOAT"
                    },
                    "value": {
                        "tensor": {
                            "dtype": "DT_FLOAT",
                            "tensorShape": {
                                "dim": [
                                    {
                                        "size": "3072"
                                    }
                                ]
                            }
                        }
                    }
                }
            },
            {
                "name": "ConstantFolding/tf_bert_for_question_answering_1/bert/encoder/layer_._11/intermediate/Gelu/truediv_recip",
                "op": "Const",
                "attr": {
                    "value": {
                        "tensor": {
                            "dtype": "DT_FLOAT",
                            "tensorShape": {}
                        }
                    },
                    "dtype": {
                        "type": "DT_FLOAT"
                    }
                }
            },
            {
                "name": "tf_bert_for_question_answering_1/bert/encoder/layer_._11/output/dense/Tensordot/free",
                "op": "Const",
                "attr": {
                    "value": {
                        "tensor": {
                            "dtype": "DT_INT32",
                            "tensorShape": {
                                "dim": [
                                    {
                                        "size": "2"
                                    }
                                ]
                            }
                        }
                    },
                    "dtype": {
                        "type": "DT_INT32"
                    }
                }
            },
            {
                "name": "tf_bert_for_question_answering_1/bert/encoder/layer_._11/output/dense/Tensordot/GatherV2/axis",
                "op": "Const",
                "attr": {
                    "value": {
                        "tensor": {
                            "dtype": "DT_INT32",
                            "tensorShape": {}
                        }
                    },
                    "dtype": {
                        "type": "DT_INT32"
                    }
                }
            },
            {
                "name": "tf_bert_for_question_answering_1/bert/encoder/layer_._11/output/dense/Tensordot/Const_2",
                "op": "Const",
                "attr": {
                    "dtype": {
                        "type": "DT_INT32"
                    },
                    "value": {
                        "tensor": {
                            "dtype": "DT_INT32",
                            "tensorShape": {
                                "dim": [
                                    {
                                        "size": "1"
                                    }
                                ]
                            }
                        }
                    }
                }
            },
            {
                "name": "tf_bert_for_question_answering_1/bert/encoder/layer_._11/output/dense/Tensordot/concat_1/axis",
                "op": "Const",
                "attr": {
                    "dtype": {
                        "type": "DT_INT32"
                    },
                    "value": {
                        "tensor": {
                            "dtype": "DT_INT32",
                            "tensorShape": {}
                        }
                    }
                }
            },
            {
                "name": "tf_bert_for_question_answering_1/bert/encoder/layer_._11/output/dense/BiasAdd/ReadVariableOp",
                "op": "Const",
                "attr": {
                    "dtype": {
                        "type": "DT_FLOAT"
                    },
                    "value": {
                        "tensor": {
                            "dtype": "DT_FLOAT",
                            "tensorShape": {
                                "dim": [
                                    {
                                        "size": "768"
                                    }
                                ]
                            }
                        }
                    }
                }
            },
            {
                "name": "tf_bert_for_question_answering_1/bert/encoder/layer_._11/attention/output/LayerNorm/batchnorm/ReadVariableOp",
                "op": "Const",
                "attr": {
                    "value": {
                        "tensor": {
                            "dtype": "DT_FLOAT",
                            "tensorShape": {
                                "dim": [
                                    {
                                        "size": "768"
                                    }
                                ]
                            }
                        }
                    },
                    "dtype": {
                        "type": "DT_FLOAT"
                    }
                }
            },
            {
                "name": "tf_bert_for_question_answering_1/bert/encoder/layer_._11/attention/output/dense/Tensordot/Const",
                "op": "Const",
                "attr": {
                    "dtype": {
                        "type": "DT_INT32"
                    },
                    "value": {
                        "tensor": {
                            "dtype": "DT_INT32",
                            "tensorShape": {
                                "dim": [
                                    {
                                        "size": "1"
                                    }
                                ]
                            }
                        }
                    }
                }
            },
            {
                "name": "tf_bert_for_question_answering_1/bert/encoder/layer_._11/attention/output/dense/Tensordot/axes",
                "op": "Const",
                "attr": {
                    "value": {
                        "tensor": {
                            "dtype": "DT_INT32",
                            "tensorShape": {
                                "dim": [
                                    {
                                        "size": "1"
                                    }
                                ]
                            }
                        }
                    },
                    "dtype": {
                        "type": "DT_INT32"
                    }
                }
            },
            {
                "name": "tf_bert_for_question_answering_1/bert/encoder/layer_._11/attention/output/dense/Tensordot/GatherV2_1/axis",
                "op": "Const",
                "attr": {
                    "dtype": {
                        "type": "DT_INT32"
                    },
                    "value": {
                        "tensor": {
                            "dtype": "DT_INT32",
                            "tensorShape": {}
                        }
                    }
                }
            },
            {
                "name": "tf_bert_for_question_answering_1/bert/encoder/layer_._11/attention/output/dense/Tensordot/Const_1",
                "op": "Const",
                "attr": {
                    "dtype": {
                        "type": "DT_INT32"
                    },
                    "value": {
                        "tensor": {
                            "dtype": "DT_INT32",
                            "tensorShape": {
                                "dim": [
                                    {
                                        "size": "1"
                                    }
                                ]
                            }
                        }
                    }
                }
            },
            {
                "name": "tf_bert_for_question_answering_1/bert/encoder/layer_._11/attention/output/dense/Tensordot/ReadVariableOp",
                "op": "Const",
                "attr": {
                    "dtype": {
                        "type": "DT_FLOAT"
                    },
                    "value": {
                        "tensor": {
                            "dtype": "DT_FLOAT",
                            "tensorShape": {
                                "dim": [
                                    {
                                        "size": "768"
                                    },
                                    {
                                        "size": "768"
                                    }
                                ]
                            }
                        }
                    }
                }
            },
            {
                "name": "tf_bert_for_question_answering_1/bert/encoder/layer_._11/attention/self/query/Tensordot/Const",
                "op": "Const",
                "attr": {
                    "dtype": {
                        "type": "DT_INT32"
                    },
                    "value": {
                        "tensor": {
                            "dtype": "DT_INT32",
                            "tensorShape": {
                                "dim": [
                                    {
                                        "size": "1"
                                    }
                                ]
                            }
                        }
                    }
                }
            },
            {
                "name": "tf_bert_for_question_answering_1/bert/encoder/layer_._11/attention/self/query/Tensordot/axes",
                "op": "Const",
                "attr": {
                    "dtype": {
                        "type": "DT_INT32"
                    },
                    "value": {
                        "tensor": {
                            "dtype": "DT_INT32",
                            "tensorShape": {
                                "dim": [
                                    {
                                        "size": "1"
                                    }
                                ]
                            }
                        }
                    }
                }
            },
            {
                "name": "tf_bert_for_question_answering_1/bert/encoder/layer_._11/attention/self/query/Tensordot/GatherV2_1/axis",
                "op": "Const",
                "attr": {
                    "value": {
                        "tensor": {
                            "dtype": "DT_INT32",
                            "tensorShape": {}
                        }
                    },
                    "dtype": {
                        "type": "DT_INT32"
                    }
                }
            },
            {
                "name": "tf_bert_for_question_answering_1/bert/encoder/layer_._11/attention/self/query/Tensordot/Const_1",
                "op": "Const",
                "attr": {
                    "dtype": {
                        "type": "DT_INT32"
                    },
                    "value": {
                        "tensor": {
                            "dtype": "DT_INT32",
                            "tensorShape": {
                                "dim": [
                                    {
                                        "size": "1"
                                    }
                                ]
                            }
                        }
                    }
                }
            },
            {
                "name": "tf_bert_for_question_answering_1/bert/encoder/layer_._11/attention/self/query/Tensordot/ReadVariableOp",
                "op": "Const",
                "attr": {
                    "value": {
                        "tensor": {
                            "dtype": "DT_FLOAT",
                            "tensorShape": {
                                "dim": [
                                    {
                                        "size": "768"
                                    },
                                    {
                                        "size": "768"
                                    }
                                ]
                            }
                        }
                    },
                    "dtype": {
                        "type": "DT_FLOAT"
                    }
                }
            },
            {
                "name": "tf_bert_for_question_answering_1/bert/encoder/layer_._11/attention/self/query/Tensordot/free",
                "op": "Const",
                "attr": {
                    "value": {
                        "tensor": {
                            "dtype": "DT_INT32",
                            "tensorShape": {
                                "dim": [
                                    {
                                        "size": "2"
                                    }
                                ]
                            }
                        }
                    },
                    "dtype": {
                        "type": "DT_INT32"
                    }
                }
            },
            {
                "name": "tf_bert_for_question_answering_1/bert/encoder/layer_._11/attention/self/query/Tensordot/GatherV2/axis",
                "op": "Const",
                "attr": {
                    "value": {
                        "tensor": {
                            "dtype": "DT_INT32",
                            "tensorShape": {}
                        }
                    },
                    "dtype": {
                        "type": "DT_INT32"
                    }
                }
            },
            {
                "name": "tf_bert_for_question_answering_1/bert/encoder/layer_._11/attention/self/query/Tensordot/Const_2",
                "op": "Const",
                "attr": {
                    "value": {
                        "tensor": {
                            "dtype": "DT_INT32",
                            "tensorShape": {
                                "dim": [
                                    {
                                        "size": "1"
                                    }
                                ]
                            }
                        }
                    },
                    "dtype": {
                        "type": "DT_INT32"
                    }
                }
            },
            {
                "name": "tf_bert_for_question_answering_1/bert/encoder/layer_._11/attention/self/query/Tensordot/concat_1/axis",
                "op": "Const",
                "attr": {
                    "dtype": {
                        "type": "DT_INT32"
                    },
                    "value": {
                        "tensor": {
                            "dtype": "DT_INT32",
                            "tensorShape": {}
                        }
                    }
                }
            },
            {
                "name": "tf_bert_for_question_answering_1/bert/encoder/layer_._11/attention/self/query/BiasAdd/ReadVariableOp",
                "op": "Const",
                "attr": {
                    "value": {
                        "tensor": {
                            "dtype": "DT_FLOAT",
                            "tensorShape": {
                                "dim": [
                                    {
                                        "size": "768"
                                    }
                                ]
                            }
                        }
                    },
                    "dtype": {
                        "type": "DT_FLOAT"
                    }
                }
            },
            {
                "name": "tf_bert_for_question_answering_1/bert/encoder/layer_._11/attention/self/Reshape_2/shape/1",
                "op": "Const",
                "attr": {
                    "value": {
                        "tensor": {
                            "dtype": "DT_INT32",
                            "tensorShape": {}
                        }
                    },
                    "dtype": {
                        "type": "DT_INT32"
                    }
                }
            },
            {
                "name": "tf_bert_for_question_answering_1/bert/encoder/layer_._11/attention/self/Reshape_2/shape/2",
                "op": "Const",
                "attr": {
                    "value": {
                        "tensor": {
                            "dtype": "DT_INT32",
                            "tensorShape": {}
                        }
                    },
                    "dtype": {
                        "type": "DT_INT32"
                    }
                }
            },
            {
                "name": "tf_bert_for_question_answering_1/bert/encoder/layer_._11/attention/self/Reshape_2/shape/3",
                "op": "Const",
                "attr": {
                    "dtype": {
                        "type": "DT_INT32"
                    },
                    "value": {
                        "tensor": {
                            "dtype": "DT_INT32",
                            "tensorShape": {}
                        }
                    }
                }
            },
            {
                "name": "tf_bert_for_question_answering_1/bert/encoder/layer_._11/attention/self/transpose_2/perm",
                "op": "Const",
                "attr": {
                    "value": {
                        "tensor": {
                            "dtype": "DT_INT32",
                            "tensorShape": {
                                "dim": [
                                    {
                                        "size": "4"
                                    }
                                ]
                            }
                        }
                    },
                    "dtype": {
                        "type": "DT_INT32"
                    }
                }
            },
            {
                "name": "tf_bert_for_question_answering_1/bert/encoder/layer_._11/attention/self/key/Tensordot/Const",
                "op": "Const",
                "attr": {
                    "value": {
                        "tensor": {
                            "dtype": "DT_INT32",
                            "tensorShape": {
                                "dim": [
                                    {
                                        "size": "1"
                                    }
                                ]
                            }
                        }
                    },
                    "dtype": {
                        "type": "DT_INT32"
                    }
                }
            },
            {
                "name": "tf_bert_for_question_answering_1/bert/encoder/layer_._11/attention/self/key/Tensordot/axes",
                "op": "Const",
                "attr": {
                    "value": {
                        "tensor": {
                            "dtype": "DT_INT32",
                            "tensorShape": {
                                "dim": [
                                    {
                                        "size": "1"
                                    }
                                ]
                            }
                        }
                    },
                    "dtype": {
                        "type": "DT_INT32"
                    }
                }
            },
            {
                "name": "tf_bert_for_question_answering_1/bert/encoder/layer_._11/attention/self/key/Tensordot/GatherV2_1/axis",
                "op": "Const",
                "attr": {
                    "dtype": {
                        "type": "DT_INT32"
                    },
                    "value": {
                        "tensor": {
                            "dtype": "DT_INT32",
                            "tensorShape": {}
                        }
                    }
                }
            },
            {
                "name": "tf_bert_for_question_answering_1/bert/encoder/layer_._11/attention/self/key/Tensordot/Const_1",
                "op": "Const",
                "attr": {
                    "value": {
                        "tensor": {
                            "dtype": "DT_INT32",
                            "tensorShape": {
                                "dim": [
                                    {
                                        "size": "1"
                                    }
                                ]
                            }
                        }
                    },
                    "dtype": {
                        "type": "DT_INT32"
                    }
                }
            },
            {
                "name": "tf_bert_for_question_answering_1/bert/encoder/layer_._11/attention/self/key/Tensordot/ReadVariableOp",
                "op": "Const",
                "attr": {
                    "dtype": {
                        "type": "DT_FLOAT"
                    },
                    "value": {
                        "tensor": {
                            "dtype": "DT_FLOAT",
                            "tensorShape": {
                                "dim": [
                                    {
                                        "size": "768"
                                    },
                                    {
                                        "size": "768"
                                    }
                                ]
                            }
                        }
                    }
                }
            },
            {
                "name": "tf_bert_for_question_answering_1/bert/encoder/layer_._11/attention/self/key/Tensordot/free",
                "op": "Const",
                "attr": {
                    "value": {
                        "tensor": {
                            "dtype": "DT_INT32",
                            "tensorShape": {
                                "dim": [
                                    {
                                        "size": "2"
                                    }
                                ]
                            }
                        }
                    },
                    "dtype": {
                        "type": "DT_INT32"
                    }
                }
            },
            {
                "name": "tf_bert_for_question_answering_1/bert/encoder/layer_._11/attention/self/key/Tensordot/GatherV2/axis",
                "op": "Const",
                "attr": {
                    "dtype": {
                        "type": "DT_INT32"
                    },
                    "value": {
                        "tensor": {
                            "dtype": "DT_INT32",
                            "tensorShape": {}
                        }
                    }
                }
            },
            {
                "name": "tf_bert_for_question_answering_1/bert/encoder/layer_._11/attention/self/key/Tensordot/Const_2",
                "op": "Const",
                "attr": {
                    "dtype": {
                        "type": "DT_INT32"
                    },
                    "value": {
                        "tensor": {
                            "dtype": "DT_INT32",
                            "tensorShape": {
                                "dim": [
                                    {
                                        "size": "1"
                                    }
                                ]
                            }
                        }
                    }
                }
            },
            {
                "name": "tf_bert_for_question_answering_1/bert/encoder/layer_._11/attention/self/key/Tensordot/concat_1/axis",
                "op": "Const",
                "attr": {
                    "dtype": {
                        "type": "DT_INT32"
                    },
                    "value": {
                        "tensor": {
                            "dtype": "DT_INT32",
                            "tensorShape": {}
                        }
                    }
                }
            },
            {
                "name": "tf_bert_for_question_answering_1/bert/encoder/layer_._11/attention/self/key/BiasAdd/ReadVariableOp",
                "op": "Const",
                "attr": {
                    "dtype": {
                        "type": "DT_FLOAT"
                    },
                    "value": {
                        "tensor": {
                            "dtype": "DT_FLOAT",
                            "tensorShape": {
                                "dim": [
                                    {
                                        "size": "768"
                                    }
                                ]
                            }
                        }
                    }
                }
            },
            {
                "name": "tf_bert_for_question_answering_1/bert/encoder/layer_._11/attention/self/Reshape/shape/1",
                "op": "Const",
                "attr": {
                    "dtype": {
                        "type": "DT_INT32"
                    },
                    "value": {
                        "tensor": {
                            "dtype": "DT_INT32",
                            "tensorShape": {}
                        }
                    }
                }
            },
            {
                "name": "tf_bert_for_question_answering_1/bert/encoder/layer_._11/attention/self/Reshape/shape/2",
                "op": "Const",
                "attr": {
                    "dtype": {
                        "type": "DT_INT32"
                    },
                    "value": {
                        "tensor": {
                            "dtype": "DT_INT32",
                            "tensorShape": {}
                        }
                    }
                }
            },
            {
                "name": "tf_bert_for_question_answering_1/bert/encoder/layer_._11/attention/self/Reshape/shape/3",
                "op": "Const",
                "attr": {
                    "dtype": {
                        "type": "DT_INT32"
                    },
                    "value": {
                        "tensor": {
                            "dtype": "DT_INT32",
                            "tensorShape": {}
                        }
                    }
                }
            },
            {
                "name": "tf_bert_for_question_answering_1/bert/encoder/layer_._11/attention/self/transpose/perm",
                "op": "Const",
                "attr": {
                    "value": {
                        "tensor": {
                            "dtype": "DT_INT32",
                            "tensorShape": {
                                "dim": [
                                    {
                                        "size": "4"
                                    }
                                ]
                            }
                        }
                    },
                    "dtype": {
                        "type": "DT_INT32"
                    }
                }
            },
            {
                "name": "ConstantFolding/tf_bert_for_question_answering_1/bert/encoder/layer_._11/attention/self/truediv_recip",
                "op": "Const",
                "attr": {
                    "value": {
                        "tensor": {
                            "dtype": "DT_FLOAT",
                            "tensorShape": {}
                        }
                    },
                    "dtype": {
                        "type": "DT_FLOAT"
                    }
                }
            },
            {
                "name": "tf_bert_for_question_answering_1/bert/encoder/layer_._11/attention/self/add_1/y",
                "op": "Const",
                "attr": {
                    "value": {
                        "tensor": {
                            "dtype": "DT_FLOAT",
                            "tensorShape": {}
                        }
                    },
                    "dtype": {
                        "type": "DT_FLOAT"
                    }
                }
            },
            {
                "name": "tf_bert_for_question_answering_1/bert/encoder/layer_._11/attention/self/value/Tensordot/Const",
                "op": "Const",
                "attr": {
                    "value": {
                        "tensor": {
                            "dtype": "DT_INT32",
                            "tensorShape": {
                                "dim": [
                                    {
                                        "size": "1"
                                    }
                                ]
                            }
                        }
                    },
                    "dtype": {
                        "type": "DT_INT32"
                    }
                }
            },
            {
                "name": "tf_bert_for_question_answering_1/bert/encoder/layer_._11/attention/self/value/Tensordot/axes",
                "op": "Const",
                "attr": {
                    "value": {
                        "tensor": {
                            "dtype": "DT_INT32",
                            "tensorShape": {
                                "dim": [
                                    {
                                        "size": "1"
                                    }
                                ]
                            }
                        }
                    },
                    "dtype": {
                        "type": "DT_INT32"
                    }
                }
            },
            {
                "name": "tf_bert_for_question_answering_1/bert/encoder/layer_._11/attention/self/value/Tensordot/GatherV2_1/axis",
                "op": "Const",
                "attr": {
                    "value": {
                        "tensor": {
                            "dtype": "DT_INT32",
                            "tensorShape": {}
                        }
                    },
                    "dtype": {
                        "type": "DT_INT32"
                    }
                }
            },
            {
                "name": "tf_bert_for_question_answering_1/bert/encoder/layer_._11/attention/self/value/Tensordot/Const_1",
                "op": "Const",
                "attr": {
                    "dtype": {
                        "type": "DT_INT32"
                    },
                    "value": {
                        "tensor": {
                            "dtype": "DT_INT32",
                            "tensorShape": {
                                "dim": [
                                    {
                                        "size": "1"
                                    }
                                ]
                            }
                        }
                    }
                }
            },
            {
                "name": "tf_bert_for_question_answering_1/bert/encoder/layer_._11/attention/self/value/Tensordot/ReadVariableOp",
                "op": "Const",
                "attr": {
                    "dtype": {
                        "type": "DT_FLOAT"
                    },
                    "value": {
                        "tensor": {
                            "dtype": "DT_FLOAT",
                            "tensorShape": {
                                "dim": [
                                    {
                                        "size": "768"
                                    },
                                    {
                                        "size": "768"
                                    }
                                ]
                            }
                        }
                    }
                }
            },
            {
                "name": "tf_bert_for_question_answering_1/bert/encoder/layer_._11/attention/self/value/Tensordot/free",
                "op": "Const",
                "attr": {
                    "value": {
                        "tensor": {
                            "dtype": "DT_INT32",
                            "tensorShape": {
                                "dim": [
                                    {
                                        "size": "2"
                                    }
                                ]
                            }
                        }
                    },
                    "dtype": {
                        "type": "DT_INT32"
                    }
                }
            },
            {
                "name": "tf_bert_for_question_answering_1/bert/encoder/layer_._11/attention/self/value/Tensordot/GatherV2/axis",
                "op": "Const",
                "attr": {
                    "dtype": {
                        "type": "DT_INT32"
                    },
                    "value": {
                        "tensor": {
                            "dtype": "DT_INT32",
                            "tensorShape": {}
                        }
                    }
                }
            },
            {
                "name": "tf_bert_for_question_answering_1/bert/encoder/layer_._11/attention/self/value/Tensordot/Const_2",
                "op": "Const",
                "attr": {
                    "dtype": {
                        "type": "DT_INT32"
                    },
                    "value": {
                        "tensor": {
                            "dtype": "DT_INT32",
                            "tensorShape": {
                                "dim": [
                                    {
                                        "size": "1"
                                    }
                                ]
                            }
                        }
                    }
                }
            },
            {
                "name": "tf_bert_for_question_answering_1/bert/encoder/layer_._11/attention/self/value/Tensordot/concat_1/axis",
                "op": "Const",
                "attr": {
                    "value": {
                        "tensor": {
                            "dtype": "DT_INT32",
                            "tensorShape": {}
                        }
                    },
                    "dtype": {
                        "type": "DT_INT32"
                    }
                }
            },
            {
                "name": "tf_bert_for_question_answering_1/bert/encoder/layer_._11/attention/self/value/BiasAdd/ReadVariableOp",
                "op": "Const",
                "attr": {
                    "dtype": {
                        "type": "DT_FLOAT"
                    },
                    "value": {
                        "tensor": {
                            "dtype": "DT_FLOAT",
                            "tensorShape": {
                                "dim": [
                                    {
                                        "size": "768"
                                    }
                                ]
                            }
                        }
                    }
                }
            },
            {
                "name": "tf_bert_for_question_answering_1/bert/encoder/layer_._11/attention/self/Reshape_1/shape/1",
                "op": "Const",
                "attr": {
                    "dtype": {
                        "type": "DT_INT32"
                    },
                    "value": {
                        "tensor": {
                            "dtype": "DT_INT32",
                            "tensorShape": {}
                        }
                    }
                }
            },
            {
                "name": "tf_bert_for_question_answering_1/bert/encoder/layer_._11/attention/self/Reshape_1/shape/2",
                "op": "Const",
                "attr": {
                    "dtype": {
                        "type": "DT_INT32"
                    },
                    "value": {
                        "tensor": {
                            "dtype": "DT_INT32",
                            "tensorShape": {}
                        }
                    }
                }
            },
            {
                "name": "tf_bert_for_question_answering_1/bert/encoder/layer_._11/attention/self/Reshape_1/shape/3",
                "op": "Const",
                "attr": {
                    "dtype": {
                        "type": "DT_INT32"
                    },
                    "value": {
                        "tensor": {
                            "dtype": "DT_INT32",
                            "tensorShape": {}
                        }
                    }
                }
            },
            {
                "name": "tf_bert_for_question_answering_1/bert/encoder/layer_._11/attention/self/transpose_1/perm",
                "op": "Const",
                "attr": {
                    "dtype": {
                        "type": "DT_INT32"
                    },
                    "value": {
                        "tensor": {
                            "dtype": "DT_INT32",
                            "tensorShape": {
                                "dim": [
                                    {
                                        "size": "4"
                                    }
                                ]
                            }
                        }
                    }
                }
            },
            {
                "name": "tf_bert_for_question_answering_1/bert/encoder/layer_._11/attention/self/transpose_3/perm",
                "op": "Const",
                "attr": {
                    "value": {
                        "tensor": {
                            "dtype": "DT_INT32",
                            "tensorShape": {
                                "dim": [
                                    {
                                        "size": "4"
                                    }
                                ]
                            }
                        }
                    },
                    "dtype": {
                        "type": "DT_INT32"
                    }
                }
            },
            {
                "name": "tf_bert_for_question_answering_1/bert/encoder/layer_._11/attention/self/strided_slice/stack",
                "op": "Const",
                "attr": {
                    "value": {
                        "tensor": {
                            "dtype": "DT_INT32",
                            "tensorShape": {
                                "dim": [
                                    {
                                        "size": "1"
                                    }
                                ]
                            }
                        }
                    },
                    "dtype": {
                        "type": "DT_INT32"
                    }
                }
            },
            {
                "name": "tf_bert_for_question_answering_1/bert/encoder/layer_._11/attention/self/strided_slice/stack_1",
                "op": "Const",
                "attr": {
                    "dtype": {
                        "type": "DT_INT32"
                    },
                    "value": {
                        "tensor": {
                            "dtype": "DT_INT32",
                            "tensorShape": {
                                "dim": [
                                    {
                                        "size": "1"
                                    }
                                ]
                            }
                        }
                    }
                }
            },
            {
                "name": "tf_bert_for_question_answering_1/bert/encoder/layer_._11/attention/self/strided_slice/stack_2",
                "op": "Const",
                "attr": {
                    "value": {
                        "tensor": {
                            "dtype": "DT_INT32",
                            "tensorShape": {
                                "dim": [
                                    {
                                        "size": "1"
                                    }
                                ]
                            }
                        }
                    },
                    "dtype": {
                        "type": "DT_INT32"
                    }
                }
            },
            {
                "name": "tf_bert_for_question_answering_1/bert/encoder/layer_._11/attention/self/Reshape_3/shape/1",
                "op": "Const",
                "attr": {
                    "value": {
                        "tensor": {
                            "dtype": "DT_INT32",
                            "tensorShape": {}
                        }
                    },
                    "dtype": {
                        "type": "DT_INT32"
                    }
                }
            },
            {
                "name": "tf_bert_for_question_answering_1/bert/encoder/layer_._11/attention/self/Reshape_3/shape/2",
                "op": "Const",
                "attr": {
                    "value": {
                        "tensor": {
                            "dtype": "DT_INT32",
                            "tensorShape": {}
                        }
                    },
                    "dtype": {
                        "type": "DT_INT32"
                    }
                }
            },
            {
                "name": "tf_bert_for_question_answering_1/bert/encoder/layer_._11/attention/output/dense/Tensordot/free",
                "op": "Const",
                "attr": {
                    "value": {
                        "tensor": {
                            "dtype": "DT_INT32",
                            "tensorShape": {
                                "dim": [
                                    {
                                        "size": "2"
                                    }
                                ]
                            }
                        }
                    },
                    "dtype": {
                        "type": "DT_INT32"
                    }
                }
            },
            {
                "name": "tf_bert_for_question_answering_1/bert/encoder/layer_._11/attention/output/dense/Tensordot/GatherV2/axis",
                "op": "Const",
                "attr": {
                    "dtype": {
                        "type": "DT_INT32"
                    },
                    "value": {
                        "tensor": {
                            "dtype": "DT_INT32",
                            "tensorShape": {}
                        }
                    }
                }
            },
            {
                "name": "tf_bert_for_question_answering_1/bert/encoder/layer_._11/attention/output/dense/Tensordot/Const_2",
                "op": "Const",
                "attr": {
                    "dtype": {
                        "type": "DT_INT32"
                    },
                    "value": {
                        "tensor": {
                            "dtype": "DT_INT32",
                            "tensorShape": {
                                "dim": [
                                    {
                                        "size": "1"
                                    }
                                ]
                            }
                        }
                    }
                }
            },
            {
                "name": "tf_bert_for_question_answering_1/bert/encoder/layer_._11/attention/output/dense/Tensordot/concat_1/axis",
                "op": "Const",
                "attr": {
                    "dtype": {
                        "type": "DT_INT32"
                    },
                    "value": {
                        "tensor": {
                            "dtype": "DT_INT32",
                            "tensorShape": {}
                        }
                    }
                }
            },
            {
                "name": "tf_bert_for_question_answering_1/bert/encoder/layer_._11/attention/output/dense/BiasAdd/ReadVariableOp",
                "op": "Const",
                "attr": {
                    "value": {
                        "tensor": {
                            "dtype": "DT_FLOAT",
                            "tensorShape": {
                                "dim": [
                                    {
                                        "size": "768"
                                    }
                                ]
                            }
                        }
                    },
                    "dtype": {
                        "type": "DT_FLOAT"
                    }
                }
            },
            {
                "name": "tf_bert_for_question_answering_1/bert/encoder/layer_._10/output/LayerNorm/batchnorm/ReadVariableOp",
                "op": "Const",
                "attr": {
                    "dtype": {
                        "type": "DT_FLOAT"
                    },
                    "value": {
                        "tensor": {
                            "dtype": "DT_FLOAT",
                            "tensorShape": {
                                "dim": [
                                    {
                                        "size": "768"
                                    }
                                ]
                            }
                        }
                    }
                }
            },
            {
                "name": "tf_bert_for_question_answering_1/bert/encoder/layer_._10/output/dense/Tensordot/Const",
                "op": "Const",
                "attr": {
                    "dtype": {
                        "type": "DT_INT32"
                    },
                    "value": {
                        "tensor": {
                            "dtype": "DT_INT32",
                            "tensorShape": {
                                "dim": [
                                    {
                                        "size": "1"
                                    }
                                ]
                            }
                        }
                    }
                }
            },
            {
                "name": "tf_bert_for_question_answering_1/bert/encoder/layer_._10/output/dense/Tensordot/axes",
                "op": "Const",
                "attr": {
                    "dtype": {
                        "type": "DT_INT32"
                    },
                    "value": {
                        "tensor": {
                            "dtype": "DT_INT32",
                            "tensorShape": {
                                "dim": [
                                    {
                                        "size": "1"
                                    }
                                ]
                            }
                        }
                    }
                }
            },
            {
                "name": "tf_bert_for_question_answering_1/bert/encoder/layer_._10/output/dense/Tensordot/GatherV2_1/axis",
                "op": "Const",
                "attr": {
                    "value": {
                        "tensor": {
                            "dtype": "DT_INT32",
                            "tensorShape": {}
                        }
                    },
                    "dtype": {
                        "type": "DT_INT32"
                    }
                }
            },
            {
                "name": "tf_bert_for_question_answering_1/bert/encoder/layer_._10/output/dense/Tensordot/Const_1",
                "op": "Const",
                "attr": {
                    "value": {
                        "tensor": {
                            "dtype": "DT_INT32",
                            "tensorShape": {
                                "dim": [
                                    {
                                        "size": "1"
                                    }
                                ]
                            }
                        }
                    },
                    "dtype": {
                        "type": "DT_INT32"
                    }
                }
            },
            {
                "name": "tf_bert_for_question_answering_1/bert/encoder/layer_._10/output/dense/Tensordot/ReadVariableOp",
                "op": "Const",
                "attr": {
                    "dtype": {
                        "type": "DT_FLOAT"
                    },
                    "value": {
                        "tensor": {
                            "dtype": "DT_FLOAT",
                            "tensorShape": {
                                "dim": [
                                    {
                                        "size": "3072"
                                    },
                                    {
                                        "size": "768"
                                    }
                                ]
                            }
                        }
                    }
                }
            },
            {
                "name": "tf_bert_for_question_answering_1/bert/encoder/layer_._10/intermediate/Gelu/mul/x",
                "op": "Const",
                "attr": {
                    "dtype": {
                        "type": "DT_FLOAT"
                    },
                    "value": {
                        "tensor": {
                            "dtype": "DT_FLOAT",
                            "tensorShape": {}
                        }
                    }
                }
            },
            {
                "name": "tf_bert_for_question_answering_1/bert/encoder/layer_._10/intermediate/Gelu/add/x",
                "op": "Const",
                "attr": {
                    "dtype": {
                        "type": "DT_FLOAT"
                    },
                    "value": {
                        "tensor": {
                            "dtype": "DT_FLOAT",
                            "tensorShape": {}
                        }
                    }
                }
            },
            {
                "name": "tf_bert_for_question_answering_1/bert/encoder/layer_._10/intermediate/dense/Tensordot/Const",
                "op": "Const",
                "attr": {
                    "value": {
                        "tensor": {
                            "dtype": "DT_INT32",
                            "tensorShape": {
                                "dim": [
                                    {
                                        "size": "1"
                                    }
                                ]
                            }
                        }
                    },
                    "dtype": {
                        "type": "DT_INT32"
                    }
                }
            },
            {
                "name": "tf_bert_for_question_answering_1/bert/encoder/layer_._10/intermediate/dense/Tensordot/axes",
                "op": "Const",
                "attr": {
                    "dtype": {
                        "type": "DT_INT32"
                    },
                    "value": {
                        "tensor": {
                            "dtype": "DT_INT32",
                            "tensorShape": {
                                "dim": [
                                    {
                                        "size": "1"
                                    }
                                ]
                            }
                        }
                    }
                }
            },
            {
                "name": "tf_bert_for_question_answering_1/bert/encoder/layer_._10/intermediate/dense/Tensordot/GatherV2_1/axis",
                "op": "Const",
                "attr": {
                    "dtype": {
                        "type": "DT_INT32"
                    },
                    "value": {
                        "tensor": {
                            "dtype": "DT_INT32",
                            "tensorShape": {}
                        }
                    }
                }
            },
            {
                "name": "tf_bert_for_question_answering_1/bert/encoder/layer_._10/intermediate/dense/Tensordot/Const_1",
                "op": "Const",
                "attr": {
                    "value": {
                        "tensor": {
                            "dtype": "DT_INT32",
                            "tensorShape": {
                                "dim": [
                                    {
                                        "size": "1"
                                    }
                                ]
                            }
                        }
                    },
                    "dtype": {
                        "type": "DT_INT32"
                    }
                }
            },
            {
                "name": "tf_bert_for_question_answering_1/bert/encoder/layer_._10/intermediate/dense/Tensordot/ReadVariableOp",
                "op": "Const",
                "attr": {
                    "dtype": {
                        "type": "DT_FLOAT"
                    },
                    "value": {
                        "tensor": {
                            "dtype": "DT_FLOAT",
                            "tensorShape": {
                                "dim": [
                                    {
                                        "size": "768"
                                    },
                                    {
                                        "size": "3072"
                                    }
                                ]
                            }
                        }
                    }
                }
            },
            {
                "name": "tf_bert_for_question_answering_1/bert/encoder/layer_._10/intermediate/dense/Tensordot/free",
                "op": "Const",
                "attr": {
                    "value": {
                        "tensor": {
                            "dtype": "DT_INT32",
                            "tensorShape": {
                                "dim": [
                                    {
                                        "size": "2"
                                    }
                                ]
                            }
                        }
                    },
                    "dtype": {
                        "type": "DT_INT32"
                    }
                }
            },
            {
                "name": "tf_bert_for_question_answering_1/bert/encoder/layer_._10/intermediate/dense/Tensordot/GatherV2/axis",
                "op": "Const",
                "attr": {
                    "value": {
                        "tensor": {
                            "dtype": "DT_INT32",
                            "tensorShape": {}
                        }
                    },
                    "dtype": {
                        "type": "DT_INT32"
                    }
                }
            },
            {
                "name": "tf_bert_for_question_answering_1/bert/encoder/layer_._10/intermediate/dense/Tensordot/Const_2",
                "op": "Const",
                "attr": {
                    "value": {
                        "tensor": {
                            "dtype": "DT_INT32",
                            "tensorShape": {
                                "dim": [
                                    {
                                        "size": "1"
                                    }
                                ]
                            }
                        }
                    },
                    "dtype": {
                        "type": "DT_INT32"
                    }
                }
            },
            {
                "name": "tf_bert_for_question_answering_1/bert/encoder/layer_._10/intermediate/dense/Tensordot/concat_1/axis",
                "op": "Const",
                "attr": {
                    "dtype": {
                        "type": "DT_INT32"
                    },
                    "value": {
                        "tensor": {
                            "dtype": "DT_INT32",
                            "tensorShape": {}
                        }
                    }
                }
            },
            {
                "name": "tf_bert_for_question_answering_1/bert/encoder/layer_._10/intermediate/dense/BiasAdd/ReadVariableOp",
                "op": "Const",
                "attr": {
                    "dtype": {
                        "type": "DT_FLOAT"
                    },
                    "value": {
                        "tensor": {
                            "dtype": "DT_FLOAT",
                            "tensorShape": {
                                "dim": [
                                    {
                                        "size": "3072"
                                    }
                                ]
                            }
                        }
                    }
                }
            },
            {
                "name": "ConstantFolding/tf_bert_for_question_answering_1/bert/encoder/layer_._10/intermediate/Gelu/truediv_recip",
                "op": "Const",
                "attr": {
                    "dtype": {
                        "type": "DT_FLOAT"
                    },
                    "value": {
                        "tensor": {
                            "dtype": "DT_FLOAT",
                            "tensorShape": {}
                        }
                    }
                }
            },
            {
                "name": "tf_bert_for_question_answering_1/bert/encoder/layer_._10/output/dense/Tensordot/free",
                "op": "Const",
                "attr": {
                    "value": {
                        "tensor": {
                            "dtype": "DT_INT32",
                            "tensorShape": {
                                "dim": [
                                    {
                                        "size": "2"
                                    }
                                ]
                            }
                        }
                    },
                    "dtype": {
                        "type": "DT_INT32"
                    }
                }
            },
            {
                "name": "tf_bert_for_question_answering_1/bert/encoder/layer_._10/output/dense/Tensordot/GatherV2/axis",
                "op": "Const",
                "attr": {
                    "value": {
                        "tensor": {
                            "dtype": "DT_INT32",
                            "tensorShape": {}
                        }
                    },
                    "dtype": {
                        "type": "DT_INT32"
                    }
                }
            },
            {
                "name": "tf_bert_for_question_answering_1/bert/encoder/layer_._10/output/dense/Tensordot/Const_2",
                "op": "Const",
                "attr": {
                    "value": {
                        "tensor": {
                            "dtype": "DT_INT32",
                            "tensorShape": {
                                "dim": [
                                    {
                                        "size": "1"
                                    }
                                ]
                            }
                        }
                    },
                    "dtype": {
                        "type": "DT_INT32"
                    }
                }
            },
            {
                "name": "tf_bert_for_question_answering_1/bert/encoder/layer_._10/output/dense/Tensordot/concat_1/axis",
                "op": "Const",
                "attr": {
                    "value": {
                        "tensor": {
                            "dtype": "DT_INT32",
                            "tensorShape": {}
                        }
                    },
                    "dtype": {
                        "type": "DT_INT32"
                    }
                }
            },
            {
                "name": "tf_bert_for_question_answering_1/bert/encoder/layer_._10/output/dense/BiasAdd/ReadVariableOp",
                "op": "Const",
                "attr": {
                    "dtype": {
                        "type": "DT_FLOAT"
                    },
                    "value": {
                        "tensor": {
                            "dtype": "DT_FLOAT",
                            "tensorShape": {
                                "dim": [
                                    {
                                        "size": "768"
                                    }
                                ]
                            }
                        }
                    }
                }
            },
            {
                "name": "tf_bert_for_question_answering_1/bert/encoder/layer_._10/attention/output/LayerNorm/batchnorm/ReadVariableOp",
                "op": "Const",
                "attr": {
                    "dtype": {
                        "type": "DT_FLOAT"
                    },
                    "value": {
                        "tensor": {
                            "dtype": "DT_FLOAT",
                            "tensorShape": {
                                "dim": [
                                    {
                                        "size": "768"
                                    }
                                ]
                            }
                        }
                    }
                }
            },
            {
                "name": "tf_bert_for_question_answering_1/bert/encoder/layer_._10/attention/output/dense/Tensordot/Const",
                "op": "Const",
                "attr": {
                    "dtype": {
                        "type": "DT_INT32"
                    },
                    "value": {
                        "tensor": {
                            "dtype": "DT_INT32",
                            "tensorShape": {
                                "dim": [
                                    {
                                        "size": "1"
                                    }
                                ]
                            }
                        }
                    }
                }
            },
            {
                "name": "tf_bert_for_question_answering_1/bert/encoder/layer_._10/attention/output/dense/Tensordot/axes",
                "op": "Const",
                "attr": {
                    "value": {
                        "tensor": {
                            "dtype": "DT_INT32",
                            "tensorShape": {
                                "dim": [
                                    {
                                        "size": "1"
                                    }
                                ]
                            }
                        }
                    },
                    "dtype": {
                        "type": "DT_INT32"
                    }
                }
            },
            {
                "name": "tf_bert_for_question_answering_1/bert/encoder/layer_._10/attention/output/dense/Tensordot/GatherV2_1/axis",
                "op": "Const",
                "attr": {
                    "dtype": {
                        "type": "DT_INT32"
                    },
                    "value": {
                        "tensor": {
                            "dtype": "DT_INT32",
                            "tensorShape": {}
                        }
                    }
                }
            },
            {
                "name": "tf_bert_for_question_answering_1/bert/encoder/layer_._10/attention/output/dense/Tensordot/Const_1",
                "op": "Const",
                "attr": {
                    "value": {
                        "tensor": {
                            "dtype": "DT_INT32",
                            "tensorShape": {
                                "dim": [
                                    {
                                        "size": "1"
                                    }
                                ]
                            }
                        }
                    },
                    "dtype": {
                        "type": "DT_INT32"
                    }
                }
            },
            {
                "name": "tf_bert_for_question_answering_1/bert/encoder/layer_._10/attention/output/dense/Tensordot/ReadVariableOp",
                "op": "Const",
                "attr": {
                    "value": {
                        "tensor": {
                            "dtype": "DT_FLOAT",
                            "tensorShape": {
                                "dim": [
                                    {
                                        "size": "768"
                                    },
                                    {
                                        "size": "768"
                                    }
                                ]
                            }
                        }
                    },
                    "dtype": {
                        "type": "DT_FLOAT"
                    }
                }
            },
            {
                "name": "tf_bert_for_question_answering_1/bert/encoder/layer_._10/attention/self/query/Tensordot/Const",
                "op": "Const",
                "attr": {
                    "value": {
                        "tensor": {
                            "dtype": "DT_INT32",
                            "tensorShape": {
                                "dim": [
                                    {
                                        "size": "1"
                                    }
                                ]
                            }
                        }
                    },
                    "dtype": {
                        "type": "DT_INT32"
                    }
                }
            },
            {
                "name": "tf_bert_for_question_answering_1/bert/encoder/layer_._10/attention/self/query/Tensordot/axes",
                "op": "Const",
                "attr": {
                    "dtype": {
                        "type": "DT_INT32"
                    },
                    "value": {
                        "tensor": {
                            "dtype": "DT_INT32",
                            "tensorShape": {
                                "dim": [
                                    {
                                        "size": "1"
                                    }
                                ]
                            }
                        }
                    }
                }
            },
            {
                "name": "tf_bert_for_question_answering_1/bert/encoder/layer_._10/attention/self/query/Tensordot/GatherV2_1/axis",
                "op": "Const",
                "attr": {
                    "value": {
                        "tensor": {
                            "dtype": "DT_INT32",
                            "tensorShape": {}
                        }
                    },
                    "dtype": {
                        "type": "DT_INT32"
                    }
                }
            },
            {
                "name": "tf_bert_for_question_answering_1/bert/encoder/layer_._10/attention/self/query/Tensordot/Const_1",
                "op": "Const",
                "attr": {
                    "value": {
                        "tensor": {
                            "dtype": "DT_INT32",
                            "tensorShape": {
                                "dim": [
                                    {
                                        "size": "1"
                                    }
                                ]
                            }
                        }
                    },
                    "dtype": {
                        "type": "DT_INT32"
                    }
                }
            },
            {
                "name": "tf_bert_for_question_answering_1/bert/encoder/layer_._10/attention/self/query/Tensordot/ReadVariableOp",
                "op": "Const",
                "attr": {
                    "dtype": {
                        "type": "DT_FLOAT"
                    },
                    "value": {
                        "tensor": {
                            "dtype": "DT_FLOAT",
                            "tensorShape": {
                                "dim": [
                                    {
                                        "size": "768"
                                    },
                                    {
                                        "size": "768"
                                    }
                                ]
                            }
                        }
                    }
                }
            },
            {
                "name": "tf_bert_for_question_answering_1/bert/encoder/layer_._10/attention/self/query/Tensordot/free",
                "op": "Const",
                "attr": {
                    "dtype": {
                        "type": "DT_INT32"
                    },
                    "value": {
                        "tensor": {
                            "dtype": "DT_INT32",
                            "tensorShape": {
                                "dim": [
                                    {
                                        "size": "2"
                                    }
                                ]
                            }
                        }
                    }
                }
            },
            {
                "name": "tf_bert_for_question_answering_1/bert/encoder/layer_._10/attention/self/query/Tensordot/GatherV2/axis",
                "op": "Const",
                "attr": {
                    "dtype": {
                        "type": "DT_INT32"
                    },
                    "value": {
                        "tensor": {
                            "dtype": "DT_INT32",
                            "tensorShape": {}
                        }
                    }
                }
            },
            {
                "name": "tf_bert_for_question_answering_1/bert/encoder/layer_._10/attention/self/query/Tensordot/Const_2",
                "op": "Const",
                "attr": {
                    "value": {
                        "tensor": {
                            "dtype": "DT_INT32",
                            "tensorShape": {
                                "dim": [
                                    {
                                        "size": "1"
                                    }
                                ]
                            }
                        }
                    },
                    "dtype": {
                        "type": "DT_INT32"
                    }
                }
            },
            {
                "name": "tf_bert_for_question_answering_1/bert/encoder/layer_._10/attention/self/query/Tensordot/concat_1/axis",
                "op": "Const",
                "attr": {
                    "dtype": {
                        "type": "DT_INT32"
                    },
                    "value": {
                        "tensor": {
                            "dtype": "DT_INT32",
                            "tensorShape": {}
                        }
                    }
                }
            },
            {
                "name": "tf_bert_for_question_answering_1/bert/encoder/layer_._10/attention/self/query/BiasAdd/ReadVariableOp",
                "op": "Const",
                "attr": {
                    "dtype": {
                        "type": "DT_FLOAT"
                    },
                    "value": {
                        "tensor": {
                            "dtype": "DT_FLOAT",
                            "tensorShape": {
                                "dim": [
                                    {
                                        "size": "768"
                                    }
                                ]
                            }
                        }
                    }
                }
            },
            {
                "name": "tf_bert_for_question_answering_1/bert/encoder/layer_._10/attention/self/Reshape_2/shape/1",
                "op": "Const",
                "attr": {
                    "value": {
                        "tensor": {
                            "dtype": "DT_INT32",
                            "tensorShape": {}
                        }
                    },
                    "dtype": {
                        "type": "DT_INT32"
                    }
                }
            },
            {
                "name": "tf_bert_for_question_answering_1/bert/encoder/layer_._10/attention/self/Reshape_2/shape/2",
                "op": "Const",
                "attr": {
                    "dtype": {
                        "type": "DT_INT32"
                    },
                    "value": {
                        "tensor": {
                            "dtype": "DT_INT32",
                            "tensorShape": {}
                        }
                    }
                }
            },
            {
                "name": "tf_bert_for_question_answering_1/bert/encoder/layer_._10/attention/self/Reshape_2/shape/3",
                "op": "Const",
                "attr": {
                    "value": {
                        "tensor": {
                            "dtype": "DT_INT32",
                            "tensorShape": {}
                        }
                    },
                    "dtype": {
                        "type": "DT_INT32"
                    }
                }
            },
            {
                "name": "tf_bert_for_question_answering_1/bert/encoder/layer_._10/attention/self/transpose_2/perm",
                "op": "Const",
                "attr": {
                    "dtype": {
                        "type": "DT_INT32"
                    },
                    "value": {
                        "tensor": {
                            "dtype": "DT_INT32",
                            "tensorShape": {
                                "dim": [
                                    {
                                        "size": "4"
                                    }
                                ]
                            }
                        }
                    }
                }
            },
            {
                "name": "tf_bert_for_question_answering_1/bert/encoder/layer_._10/attention/self/key/Tensordot/Const",
                "op": "Const",
                "attr": {
                    "value": {
                        "tensor": {
                            "dtype": "DT_INT32",
                            "tensorShape": {
                                "dim": [
                                    {
                                        "size": "1"
                                    }
                                ]
                            }
                        }
                    },
                    "dtype": {
                        "type": "DT_INT32"
                    }
                }
            },
            {
                "name": "tf_bert_for_question_answering_1/bert/encoder/layer_._10/attention/self/key/Tensordot/axes",
                "op": "Const",
                "attr": {
                    "value": {
                        "tensor": {
                            "dtype": "DT_INT32",
                            "tensorShape": {
                                "dim": [
                                    {
                                        "size": "1"
                                    }
                                ]
                            }
                        }
                    },
                    "dtype": {
                        "type": "DT_INT32"
                    }
                }
            },
            {
                "name": "tf_bert_for_question_answering_1/bert/encoder/layer_._10/attention/self/key/Tensordot/GatherV2_1/axis",
                "op": "Const",
                "attr": {
                    "dtype": {
                        "type": "DT_INT32"
                    },
                    "value": {
                        "tensor": {
                            "dtype": "DT_INT32",
                            "tensorShape": {}
                        }
                    }
                }
            },
            {
                "name": "tf_bert_for_question_answering_1/bert/encoder/layer_._10/attention/self/key/Tensordot/Const_1",
                "op": "Const",
                "attr": {
                    "value": {
                        "tensor": {
                            "dtype": "DT_INT32",
                            "tensorShape": {
                                "dim": [
                                    {
                                        "size": "1"
                                    }
                                ]
                            }
                        }
                    },
                    "dtype": {
                        "type": "DT_INT32"
                    }
                }
            },
            {
                "name": "tf_bert_for_question_answering_1/bert/encoder/layer_._10/attention/self/key/Tensordot/ReadVariableOp",
                "op": "Const",
                "attr": {
                    "dtype": {
                        "type": "DT_FLOAT"
                    },
                    "value": {
                        "tensor": {
                            "dtype": "DT_FLOAT",
                            "tensorShape": {
                                "dim": [
                                    {
                                        "size": "768"
                                    },
                                    {
                                        "size": "768"
                                    }
                                ]
                            }
                        }
                    }
                }
            },
            {
                "name": "tf_bert_for_question_answering_1/bert/encoder/layer_._10/attention/self/key/Tensordot/free",
                "op": "Const",
                "attr": {
                    "dtype": {
                        "type": "DT_INT32"
                    },
                    "value": {
                        "tensor": {
                            "dtype": "DT_INT32",
                            "tensorShape": {
                                "dim": [
                                    {
                                        "size": "2"
                                    }
                                ]
                            }
                        }
                    }
                }
            },
            {
                "name": "tf_bert_for_question_answering_1/bert/encoder/layer_._10/attention/self/key/Tensordot/GatherV2/axis",
                "op": "Const",
                "attr": {
                    "dtype": {
                        "type": "DT_INT32"
                    },
                    "value": {
                        "tensor": {
                            "dtype": "DT_INT32",
                            "tensorShape": {}
                        }
                    }
                }
            },
            {
                "name": "tf_bert_for_question_answering_1/bert/encoder/layer_._10/attention/self/key/Tensordot/Const_2",
                "op": "Const",
                "attr": {
                    "dtype": {
                        "type": "DT_INT32"
                    },
                    "value": {
                        "tensor": {
                            "dtype": "DT_INT32",
                            "tensorShape": {
                                "dim": [
                                    {
                                        "size": "1"
                                    }
                                ]
                            }
                        }
                    }
                }
            },
            {
                "name": "tf_bert_for_question_answering_1/bert/encoder/layer_._10/attention/self/key/Tensordot/concat_1/axis",
                "op": "Const",
                "attr": {
                    "dtype": {
                        "type": "DT_INT32"
                    },
                    "value": {
                        "tensor": {
                            "dtype": "DT_INT32",
                            "tensorShape": {}
                        }
                    }
                }
            },
            {
                "name": "tf_bert_for_question_answering_1/bert/encoder/layer_._10/attention/self/key/BiasAdd/ReadVariableOp",
                "op": "Const",
                "attr": {
                    "dtype": {
                        "type": "DT_FLOAT"
                    },
                    "value": {
                        "tensor": {
                            "dtype": "DT_FLOAT",
                            "tensorShape": {
                                "dim": [
                                    {
                                        "size": "768"
                                    }
                                ]
                            }
                        }
                    }
                }
            },
            {
                "name": "tf_bert_for_question_answering_1/bert/encoder/layer_._10/attention/self/Reshape/shape/1",
                "op": "Const",
                "attr": {
                    "dtype": {
                        "type": "DT_INT32"
                    },
                    "value": {
                        "tensor": {
                            "dtype": "DT_INT32",
                            "tensorShape": {}
                        }
                    }
                }
            },
            {
                "name": "tf_bert_for_question_answering_1/bert/encoder/layer_._10/attention/self/Reshape/shape/2",
                "op": "Const",
                "attr": {
                    "value": {
                        "tensor": {
                            "dtype": "DT_INT32",
                            "tensorShape": {}
                        }
                    },
                    "dtype": {
                        "type": "DT_INT32"
                    }
                }
            },
            {
                "name": "tf_bert_for_question_answering_1/bert/encoder/layer_._10/attention/self/Reshape/shape/3",
                "op": "Const",
                "attr": {
                    "value": {
                        "tensor": {
                            "dtype": "DT_INT32",
                            "tensorShape": {}
                        }
                    },
                    "dtype": {
                        "type": "DT_INT32"
                    }
                }
            },
            {
                "name": "tf_bert_for_question_answering_1/bert/encoder/layer_._10/attention/self/transpose/perm",
                "op": "Const",
                "attr": {
                    "dtype": {
                        "type": "DT_INT32"
                    },
                    "value": {
                        "tensor": {
                            "dtype": "DT_INT32",
                            "tensorShape": {
                                "dim": [
                                    {
                                        "size": "4"
                                    }
                                ]
                            }
                        }
                    }
                }
            },
            {
                "name": "ConstantFolding/tf_bert_for_question_answering_1/bert/encoder/layer_._10/attention/self/truediv_recip",
                "op": "Const",
                "attr": {
                    "value": {
                        "tensor": {
                            "dtype": "DT_FLOAT",
                            "tensorShape": {}
                        }
                    },
                    "dtype": {
                        "type": "DT_FLOAT"
                    }
                }
            },
            {
                "name": "tf_bert_for_question_answering_1/bert/encoder/layer_._10/attention/self/add_1/y",
                "op": "Const",
                "attr": {
                    "dtype": {
                        "type": "DT_FLOAT"
                    },
                    "value": {
                        "tensor": {
                            "dtype": "DT_FLOAT",
                            "tensorShape": {}
                        }
                    }
                }
            },
            {
                "name": "tf_bert_for_question_answering_1/bert/encoder/layer_._10/attention/self/value/Tensordot/Const",
                "op": "Const",
                "attr": {
                    "dtype": {
                        "type": "DT_INT32"
                    },
                    "value": {
                        "tensor": {
                            "dtype": "DT_INT32",
                            "tensorShape": {
                                "dim": [
                                    {
                                        "size": "1"
                                    }
                                ]
                            }
                        }
                    }
                }
            },
            {
                "name": "tf_bert_for_question_answering_1/bert/encoder/layer_._10/attention/self/value/Tensordot/axes",
                "op": "Const",
                "attr": {
                    "dtype": {
                        "type": "DT_INT32"
                    },
                    "value": {
                        "tensor": {
                            "dtype": "DT_INT32",
                            "tensorShape": {
                                "dim": [
                                    {
                                        "size": "1"
                                    }
                                ]
                            }
                        }
                    }
                }
            },
            {
                "name": "tf_bert_for_question_answering_1/bert/encoder/layer_._10/attention/self/value/Tensordot/GatherV2_1/axis",
                "op": "Const",
                "attr": {
                    "dtype": {
                        "type": "DT_INT32"
                    },
                    "value": {
                        "tensor": {
                            "dtype": "DT_INT32",
                            "tensorShape": {}
                        }
                    }
                }
            },
            {
                "name": "tf_bert_for_question_answering_1/bert/encoder/layer_._10/attention/self/value/Tensordot/Const_1",
                "op": "Const",
                "attr": {
                    "dtype": {
                        "type": "DT_INT32"
                    },
                    "value": {
                        "tensor": {
                            "dtype": "DT_INT32",
                            "tensorShape": {
                                "dim": [
                                    {
                                        "size": "1"
                                    }
                                ]
                            }
                        }
                    }
                }
            },
            {
                "name": "tf_bert_for_question_answering_1/bert/encoder/layer_._10/attention/self/value/Tensordot/ReadVariableOp",
                "op": "Const",
                "attr": {
                    "dtype": {
                        "type": "DT_FLOAT"
                    },
                    "value": {
                        "tensor": {
                            "dtype": "DT_FLOAT",
                            "tensorShape": {
                                "dim": [
                                    {
                                        "size": "768"
                                    },
                                    {
                                        "size": "768"
                                    }
                                ]
                            }
                        }
                    }
                }
            },
            {
                "name": "tf_bert_for_question_answering_1/bert/encoder/layer_._10/attention/self/value/Tensordot/free",
                "op": "Const",
                "attr": {
                    "value": {
                        "tensor": {
                            "dtype": "DT_INT32",
                            "tensorShape": {
                                "dim": [
                                    {
                                        "size": "2"
                                    }
                                ]
                            }
                        }
                    },
                    "dtype": {
                        "type": "DT_INT32"
                    }
                }
            },
            {
                "name": "tf_bert_for_question_answering_1/bert/encoder/layer_._10/attention/self/value/Tensordot/GatherV2/axis",
                "op": "Const",
                "attr": {
                    "dtype": {
                        "type": "DT_INT32"
                    },
                    "value": {
                        "tensor": {
                            "dtype": "DT_INT32",
                            "tensorShape": {}
                        }
                    }
                }
            },
            {
                "name": "tf_bert_for_question_answering_1/bert/encoder/layer_._10/attention/self/value/Tensordot/Const_2",
                "op": "Const",
                "attr": {
                    "value": {
                        "tensor": {
                            "dtype": "DT_INT32",
                            "tensorShape": {
                                "dim": [
                                    {
                                        "size": "1"
                                    }
                                ]
                            }
                        }
                    },
                    "dtype": {
                        "type": "DT_INT32"
                    }
                }
            },
            {
                "name": "tf_bert_for_question_answering_1/bert/encoder/layer_._10/attention/self/value/Tensordot/concat_1/axis",
                "op": "Const",
                "attr": {
                    "value": {
                        "tensor": {
                            "dtype": "DT_INT32",
                            "tensorShape": {}
                        }
                    },
                    "dtype": {
                        "type": "DT_INT32"
                    }
                }
            },
            {
                "name": "tf_bert_for_question_answering_1/bert/encoder/layer_._10/attention/self/value/BiasAdd/ReadVariableOp",
                "op": "Const",
                "attr": {
                    "value": {
                        "tensor": {
                            "dtype": "DT_FLOAT",
                            "tensorShape": {
                                "dim": [
                                    {
                                        "size": "768"
                                    }
                                ]
                            }
                        }
                    },
                    "dtype": {
                        "type": "DT_FLOAT"
                    }
                }
            },
            {
                "name": "tf_bert_for_question_answering_1/bert/encoder/layer_._10/attention/self/Reshape_1/shape/1",
                "op": "Const",
                "attr": {
                    "dtype": {
                        "type": "DT_INT32"
                    },
                    "value": {
                        "tensor": {
                            "dtype": "DT_INT32",
                            "tensorShape": {}
                        }
                    }
                }
            },
            {
                "name": "tf_bert_for_question_answering_1/bert/encoder/layer_._10/attention/self/Reshape_1/shape/2",
                "op": "Const",
                "attr": {
                    "dtype": {
                        "type": "DT_INT32"
                    },
                    "value": {
                        "tensor": {
                            "dtype": "DT_INT32",
                            "tensorShape": {}
                        }
                    }
                }
            },
            {
                "name": "tf_bert_for_question_answering_1/bert/encoder/layer_._10/attention/self/Reshape_1/shape/3",
                "op": "Const",
                "attr": {
                    "dtype": {
                        "type": "DT_INT32"
                    },
                    "value": {
                        "tensor": {
                            "dtype": "DT_INT32",
                            "tensorShape": {}
                        }
                    }
                }
            },
            {
                "name": "tf_bert_for_question_answering_1/bert/encoder/layer_._10/attention/self/transpose_1/perm",
                "op": "Const",
                "attr": {
                    "value": {
                        "tensor": {
                            "dtype": "DT_INT32",
                            "tensorShape": {
                                "dim": [
                                    {
                                        "size": "4"
                                    }
                                ]
                            }
                        }
                    },
                    "dtype": {
                        "type": "DT_INT32"
                    }
                }
            },
            {
                "name": "tf_bert_for_question_answering_1/bert/encoder/layer_._10/attention/self/transpose_3/perm",
                "op": "Const",
                "attr": {
                    "dtype": {
                        "type": "DT_INT32"
                    },
                    "value": {
                        "tensor": {
                            "dtype": "DT_INT32",
                            "tensorShape": {
                                "dim": [
                                    {
                                        "size": "4"
                                    }
                                ]
                            }
                        }
                    }
                }
            },
            {
                "name": "tf_bert_for_question_answering_1/bert/encoder/layer_._10/attention/self/strided_slice/stack",
                "op": "Const",
                "attr": {
                    "value": {
                        "tensor": {
                            "dtype": "DT_INT32",
                            "tensorShape": {
                                "dim": [
                                    {
                                        "size": "1"
                                    }
                                ]
                            }
                        }
                    },
                    "dtype": {
                        "type": "DT_INT32"
                    }
                }
            },
            {
                "name": "tf_bert_for_question_answering_1/bert/encoder/layer_._10/attention/self/strided_slice/stack_1",
                "op": "Const",
                "attr": {
                    "dtype": {
                        "type": "DT_INT32"
                    },
                    "value": {
                        "tensor": {
                            "dtype": "DT_INT32",
                            "tensorShape": {
                                "dim": [
                                    {
                                        "size": "1"
                                    }
                                ]
                            }
                        }
                    }
                }
            },
            {
                "name": "tf_bert_for_question_answering_1/bert/encoder/layer_._10/attention/self/strided_slice/stack_2",
                "op": "Const",
                "attr": {
                    "dtype": {
                        "type": "DT_INT32"
                    },
                    "value": {
                        "tensor": {
                            "dtype": "DT_INT32",
                            "tensorShape": {
                                "dim": [
                                    {
                                        "size": "1"
                                    }
                                ]
                            }
                        }
                    }
                }
            },
            {
                "name": "tf_bert_for_question_answering_1/bert/encoder/layer_._10/attention/self/Reshape_3/shape/1",
                "op": "Const",
                "attr": {
                    "value": {
                        "tensor": {
                            "dtype": "DT_INT32",
                            "tensorShape": {}
                        }
                    },
                    "dtype": {
                        "type": "DT_INT32"
                    }
                }
            },
            {
                "name": "tf_bert_for_question_answering_1/bert/encoder/layer_._10/attention/self/Reshape_3/shape/2",
                "op": "Const",
                "attr": {
                    "value": {
                        "tensor": {
                            "dtype": "DT_INT32",
                            "tensorShape": {}
                        }
                    },
                    "dtype": {
                        "type": "DT_INT32"
                    }
                }
            },
            {
                "name": "tf_bert_for_question_answering_1/bert/encoder/layer_._10/attention/output/dense/Tensordot/free",
                "op": "Const",
                "attr": {
                    "dtype": {
                        "type": "DT_INT32"
                    },
                    "value": {
                        "tensor": {
                            "dtype": "DT_INT32",
                            "tensorShape": {
                                "dim": [
                                    {
                                        "size": "2"
                                    }
                                ]
                            }
                        }
                    }
                }
            },
            {
                "name": "tf_bert_for_question_answering_1/bert/encoder/layer_._10/attention/output/dense/Tensordot/GatherV2/axis",
                "op": "Const",
                "attr": {
                    "dtype": {
                        "type": "DT_INT32"
                    },
                    "value": {
                        "tensor": {
                            "dtype": "DT_INT32",
                            "tensorShape": {}
                        }
                    }
                }
            },
            {
                "name": "tf_bert_for_question_answering_1/bert/encoder/layer_._10/attention/output/dense/Tensordot/Const_2",
                "op": "Const",
                "attr": {
                    "value": {
                        "tensor": {
                            "dtype": "DT_INT32",
                            "tensorShape": {
                                "dim": [
                                    {
                                        "size": "1"
                                    }
                                ]
                            }
                        }
                    },
                    "dtype": {
                        "type": "DT_INT32"
                    }
                }
            },
            {
                "name": "tf_bert_for_question_answering_1/bert/encoder/layer_._10/attention/output/dense/Tensordot/concat_1/axis",
                "op": "Const",
                "attr": {
                    "dtype": {
                        "type": "DT_INT32"
                    },
                    "value": {
                        "tensor": {
                            "dtype": "DT_INT32",
                            "tensorShape": {}
                        }
                    }
                }
            },
            {
                "name": "tf_bert_for_question_answering_1/bert/encoder/layer_._10/attention/output/dense/BiasAdd/ReadVariableOp",
                "op": "Const",
                "attr": {
                    "dtype": {
                        "type": "DT_FLOAT"
                    },
                    "value": {
                        "tensor": {
                            "dtype": "DT_FLOAT",
                            "tensorShape": {
                                "dim": [
                                    {
                                        "size": "768"
                                    }
                                ]
                            }
                        }
                    }
                }
            },
            {
                "name": "tf_bert_for_question_answering_1/bert/encoder/layer_._9/output/LayerNorm/batchnorm/ReadVariableOp",
                "op": "Const",
                "attr": {
                    "value": {
                        "tensor": {
                            "dtype": "DT_FLOAT",
                            "tensorShape": {
                                "dim": [
                                    {
                                        "size": "768"
                                    }
                                ]
                            }
                        }
                    },
                    "dtype": {
                        "type": "DT_FLOAT"
                    }
                }
            },
            {
                "name": "tf_bert_for_question_answering_1/bert/encoder/layer_._9/output/dense/Tensordot/Const",
                "op": "Const",
                "attr": {
                    "value": {
                        "tensor": {
                            "dtype": "DT_INT32",
                            "tensorShape": {
                                "dim": [
                                    {
                                        "size": "1"
                                    }
                                ]
                            }
                        }
                    },
                    "dtype": {
                        "type": "DT_INT32"
                    }
                }
            },
            {
                "name": "tf_bert_for_question_answering_1/bert/encoder/layer_._9/output/dense/Tensordot/axes",
                "op": "Const",
                "attr": {
                    "value": {
                        "tensor": {
                            "dtype": "DT_INT32",
                            "tensorShape": {
                                "dim": [
                                    {
                                        "size": "1"
                                    }
                                ]
                            }
                        }
                    },
                    "dtype": {
                        "type": "DT_INT32"
                    }
                }
            },
            {
                "name": "tf_bert_for_question_answering_1/bert/encoder/layer_._9/output/dense/Tensordot/GatherV2_1/axis",
                "op": "Const",
                "attr": {
                    "value": {
                        "tensor": {
                            "dtype": "DT_INT32",
                            "tensorShape": {}
                        }
                    },
                    "dtype": {
                        "type": "DT_INT32"
                    }
                }
            },
            {
                "name": "tf_bert_for_question_answering_1/bert/encoder/layer_._9/output/dense/Tensordot/Const_1",
                "op": "Const",
                "attr": {
                    "value": {
                        "tensor": {
                            "dtype": "DT_INT32",
                            "tensorShape": {
                                "dim": [
                                    {
                                        "size": "1"
                                    }
                                ]
                            }
                        }
                    },
                    "dtype": {
                        "type": "DT_INT32"
                    }
                }
            },
            {
                "name": "tf_bert_for_question_answering_1/bert/encoder/layer_._9/output/dense/Tensordot/ReadVariableOp",
                "op": "Const",
                "attr": {
                    "value": {
                        "tensor": {
                            "dtype": "DT_FLOAT",
                            "tensorShape": {
                                "dim": [
                                    {
                                        "size": "3072"
                                    },
                                    {
                                        "size": "768"
                                    }
                                ]
                            }
                        }
                    },
                    "dtype": {
                        "type": "DT_FLOAT"
                    }
                }
            },
            {
                "name": "tf_bert_for_question_answering_1/bert/encoder/layer_._9/intermediate/Gelu/mul/x",
                "op": "Const",
                "attr": {
                    "value": {
                        "tensor": {
                            "dtype": "DT_FLOAT",
                            "tensorShape": {}
                        }
                    },
                    "dtype": {
                        "type": "DT_FLOAT"
                    }
                }
            },
            {
                "name": "tf_bert_for_question_answering_1/bert/encoder/layer_._9/intermediate/Gelu/add/x",
                "op": "Const",
                "attr": {
                    "dtype": {
                        "type": "DT_FLOAT"
                    },
                    "value": {
                        "tensor": {
                            "dtype": "DT_FLOAT",
                            "tensorShape": {}
                        }
                    }
                }
            },
            {
                "name": "tf_bert_for_question_answering_1/bert/encoder/layer_._9/intermediate/dense/Tensordot/Const",
                "op": "Const",
                "attr": {
                    "dtype": {
                        "type": "DT_INT32"
                    },
                    "value": {
                        "tensor": {
                            "dtype": "DT_INT32",
                            "tensorShape": {
                                "dim": [
                                    {
                                        "size": "1"
                                    }
                                ]
                            }
                        }
                    }
                }
            },
            {
                "name": "tf_bert_for_question_answering_1/bert/encoder/layer_._9/intermediate/dense/Tensordot/axes",
                "op": "Const",
                "attr": {
                    "dtype": {
                        "type": "DT_INT32"
                    },
                    "value": {
                        "tensor": {
                            "dtype": "DT_INT32",
                            "tensorShape": {
                                "dim": [
                                    {
                                        "size": "1"
                                    }
                                ]
                            }
                        }
                    }
                }
            },
            {
                "name": "tf_bert_for_question_answering_1/bert/encoder/layer_._9/intermediate/dense/Tensordot/GatherV2_1/axis",
                "op": "Const",
                "attr": {
                    "value": {
                        "tensor": {
                            "dtype": "DT_INT32",
                            "tensorShape": {}
                        }
                    },
                    "dtype": {
                        "type": "DT_INT32"
                    }
                }
            },
            {
                "name": "tf_bert_for_question_answering_1/bert/encoder/layer_._9/intermediate/dense/Tensordot/Const_1",
                "op": "Const",
                "attr": {
                    "dtype": {
                        "type": "DT_INT32"
                    },
                    "value": {
                        "tensor": {
                            "dtype": "DT_INT32",
                            "tensorShape": {
                                "dim": [
                                    {
                                        "size": "1"
                                    }
                                ]
                            }
                        }
                    }
                }
            },
            {
                "name": "tf_bert_for_question_answering_1/bert/encoder/layer_._9/intermediate/dense/Tensordot/ReadVariableOp",
                "op": "Const",
                "attr": {
                    "dtype": {
                        "type": "DT_FLOAT"
                    },
                    "value": {
                        "tensor": {
                            "dtype": "DT_FLOAT",
                            "tensorShape": {
                                "dim": [
                                    {
                                        "size": "768"
                                    },
                                    {
                                        "size": "3072"
                                    }
                                ]
                            }
                        }
                    }
                }
            },
            {
                "name": "tf_bert_for_question_answering_1/bert/encoder/layer_._9/intermediate/dense/Tensordot/free",
                "op": "Const",
                "attr": {
                    "dtype": {
                        "type": "DT_INT32"
                    },
                    "value": {
                        "tensor": {
                            "dtype": "DT_INT32",
                            "tensorShape": {
                                "dim": [
                                    {
                                        "size": "2"
                                    }
                                ]
                            }
                        }
                    }
                }
            },
            {
                "name": "tf_bert_for_question_answering_1/bert/encoder/layer_._9/intermediate/dense/Tensordot/GatherV2/axis",
                "op": "Const",
                "attr": {
                    "dtype": {
                        "type": "DT_INT32"
                    },
                    "value": {
                        "tensor": {
                            "dtype": "DT_INT32",
                            "tensorShape": {}
                        }
                    }
                }
            },
            {
                "name": "tf_bert_for_question_answering_1/bert/encoder/layer_._9/intermediate/dense/Tensordot/Const_2",
                "op": "Const",
                "attr": {
                    "dtype": {
                        "type": "DT_INT32"
                    },
                    "value": {
                        "tensor": {
                            "dtype": "DT_INT32",
                            "tensorShape": {
                                "dim": [
                                    {
                                        "size": "1"
                                    }
                                ]
                            }
                        }
                    }
                }
            },
            {
                "name": "tf_bert_for_question_answering_1/bert/encoder/layer_._9/intermediate/dense/Tensordot/concat_1/axis",
                "op": "Const",
                "attr": {
                    "value": {
                        "tensor": {
                            "dtype": "DT_INT32",
                            "tensorShape": {}
                        }
                    },
                    "dtype": {
                        "type": "DT_INT32"
                    }
                }
            },
            {
                "name": "tf_bert_for_question_answering_1/bert/encoder/layer_._9/intermediate/dense/BiasAdd/ReadVariableOp",
                "op": "Const",
                "attr": {
                    "dtype": {
                        "type": "DT_FLOAT"
                    },
                    "value": {
                        "tensor": {
                            "dtype": "DT_FLOAT",
                            "tensorShape": {
                                "dim": [
                                    {
                                        "size": "3072"
                                    }
                                ]
                            }
                        }
                    }
                }
            },
            {
                "name": "ConstantFolding/tf_bert_for_question_answering_1/bert/encoder/layer_._9/intermediate/Gelu/truediv_recip",
                "op": "Const",
                "attr": {
                    "dtype": {
                        "type": "DT_FLOAT"
                    },
                    "value": {
                        "tensor": {
                            "dtype": "DT_FLOAT",
                            "tensorShape": {}
                        }
                    }
                }
            },
            {
                "name": "tf_bert_for_question_answering_1/bert/encoder/layer_._9/output/dense/Tensordot/free",
                "op": "Const",
                "attr": {
                    "dtype": {
                        "type": "DT_INT32"
                    },
                    "value": {
                        "tensor": {
                            "dtype": "DT_INT32",
                            "tensorShape": {
                                "dim": [
                                    {
                                        "size": "2"
                                    }
                                ]
                            }
                        }
                    }
                }
            },
            {
                "name": "tf_bert_for_question_answering_1/bert/encoder/layer_._9/output/dense/Tensordot/GatherV2/axis",
                "op": "Const",
                "attr": {
                    "dtype": {
                        "type": "DT_INT32"
                    },
                    "value": {
                        "tensor": {
                            "dtype": "DT_INT32",
                            "tensorShape": {}
                        }
                    }
                }
            },
            {
                "name": "tf_bert_for_question_answering_1/bert/encoder/layer_._9/output/dense/Tensordot/Const_2",
                "op": "Const",
                "attr": {
                    "value": {
                        "tensor": {
                            "dtype": "DT_INT32",
                            "tensorShape": {
                                "dim": [
                                    {
                                        "size": "1"
                                    }
                                ]
                            }
                        }
                    },
                    "dtype": {
                        "type": "DT_INT32"
                    }
                }
            },
            {
                "name": "tf_bert_for_question_answering_1/bert/encoder/layer_._9/output/dense/Tensordot/concat_1/axis",
                "op": "Const",
                "attr": {
                    "dtype": {
                        "type": "DT_INT32"
                    },
                    "value": {
                        "tensor": {
                            "dtype": "DT_INT32",
                            "tensorShape": {}
                        }
                    }
                }
            },
            {
                "name": "tf_bert_for_question_answering_1/bert/encoder/layer_._9/output/dense/BiasAdd/ReadVariableOp",
                "op": "Const",
                "attr": {
                    "value": {
                        "tensor": {
                            "dtype": "DT_FLOAT",
                            "tensorShape": {
                                "dim": [
                                    {
                                        "size": "768"
                                    }
                                ]
                            }
                        }
                    },
                    "dtype": {
                        "type": "DT_FLOAT"
                    }
                }
            },
            {
                "name": "tf_bert_for_question_answering_1/bert/encoder/layer_._9/attention/output/LayerNorm/batchnorm/ReadVariableOp",
                "op": "Const",
                "attr": {
                    "dtype": {
                        "type": "DT_FLOAT"
                    },
                    "value": {
                        "tensor": {
                            "dtype": "DT_FLOAT",
                            "tensorShape": {
                                "dim": [
                                    {
                                        "size": "768"
                                    }
                                ]
                            }
                        }
                    }
                }
            },
            {
                "name": "tf_bert_for_question_answering_1/bert/encoder/layer_._9/attention/output/dense/Tensordot/Const",
                "op": "Const",
                "attr": {
                    "dtype": {
                        "type": "DT_INT32"
                    },
                    "value": {
                        "tensor": {
                            "dtype": "DT_INT32",
                            "tensorShape": {
                                "dim": [
                                    {
                                        "size": "1"
                                    }
                                ]
                            }
                        }
                    }
                }
            },
            {
                "name": "tf_bert_for_question_answering_1/bert/encoder/layer_._9/attention/output/dense/Tensordot/axes",
                "op": "Const",
                "attr": {
                    "dtype": {
                        "type": "DT_INT32"
                    },
                    "value": {
                        "tensor": {
                            "dtype": "DT_INT32",
                            "tensorShape": {
                                "dim": [
                                    {
                                        "size": "1"
                                    }
                                ]
                            }
                        }
                    }
                }
            },
            {
                "name": "tf_bert_for_question_answering_1/bert/encoder/layer_._9/attention/output/dense/Tensordot/GatherV2_1/axis",
                "op": "Const",
                "attr": {
                    "value": {
                        "tensor": {
                            "dtype": "DT_INT32",
                            "tensorShape": {}
                        }
                    },
                    "dtype": {
                        "type": "DT_INT32"
                    }
                }
            },
            {
                "name": "tf_bert_for_question_answering_1/bert/encoder/layer_._9/attention/output/dense/Tensordot/Const_1",
                "op": "Const",
                "attr": {
                    "value": {
                        "tensor": {
                            "dtype": "DT_INT32",
                            "tensorShape": {
                                "dim": [
                                    {
                                        "size": "1"
                                    }
                                ]
                            }
                        }
                    },
                    "dtype": {
                        "type": "DT_INT32"
                    }
                }
            },
            {
                "name": "tf_bert_for_question_answering_1/bert/encoder/layer_._9/attention/output/dense/Tensordot/ReadVariableOp",
                "op": "Const",
                "attr": {
                    "dtype": {
                        "type": "DT_FLOAT"
                    },
                    "value": {
                        "tensor": {
                            "dtype": "DT_FLOAT",
                            "tensorShape": {
                                "dim": [
                                    {
                                        "size": "768"
                                    },
                                    {
                                        "size": "768"
                                    }
                                ]
                            }
                        }
                    }
                }
            },
            {
                "name": "tf_bert_for_question_answering_1/bert/encoder/layer_._9/attention/self/query/Tensordot/Const",
                "op": "Const",
                "attr": {
                    "value": {
                        "tensor": {
                            "dtype": "DT_INT32",
                            "tensorShape": {
                                "dim": [
                                    {
                                        "size": "1"
                                    }
                                ]
                            }
                        }
                    },
                    "dtype": {
                        "type": "DT_INT32"
                    }
                }
            },
            {
                "name": "tf_bert_for_question_answering_1/bert/encoder/layer_._9/attention/self/query/Tensordot/axes",
                "op": "Const",
                "attr": {
                    "value": {
                        "tensor": {
                            "dtype": "DT_INT32",
                            "tensorShape": {
                                "dim": [
                                    {
                                        "size": "1"
                                    }
                                ]
                            }
                        }
                    },
                    "dtype": {
                        "type": "DT_INT32"
                    }
                }
            },
            {
                "name": "tf_bert_for_question_answering_1/bert/encoder/layer_._9/attention/self/query/Tensordot/GatherV2_1/axis",
                "op": "Const",
                "attr": {
                    "value": {
                        "tensor": {
                            "dtype": "DT_INT32",
                            "tensorShape": {}
                        }
                    },
                    "dtype": {
                        "type": "DT_INT32"
                    }
                }
            },
            {
                "name": "tf_bert_for_question_answering_1/bert/encoder/layer_._9/attention/self/query/Tensordot/Const_1",
                "op": "Const",
                "attr": {
                    "value": {
                        "tensor": {
                            "dtype": "DT_INT32",
                            "tensorShape": {
                                "dim": [
                                    {
                                        "size": "1"
                                    }
                                ]
                            }
                        }
                    },
                    "dtype": {
                        "type": "DT_INT32"
                    }
                }
            },
            {
                "name": "tf_bert_for_question_answering_1/bert/encoder/layer_._9/attention/self/query/Tensordot/ReadVariableOp",
                "op": "Const",
                "attr": {
                    "value": {
                        "tensor": {
                            "dtype": "DT_FLOAT",
                            "tensorShape": {
                                "dim": [
                                    {
                                        "size": "768"
                                    },
                                    {
                                        "size": "768"
                                    }
                                ]
                            }
                        }
                    },
                    "dtype": {
                        "type": "DT_FLOAT"
                    }
                }
            },
            {
                "name": "tf_bert_for_question_answering_1/bert/encoder/layer_._9/attention/self/query/Tensordot/free",
                "op": "Const",
                "attr": {
                    "value": {
                        "tensor": {
                            "dtype": "DT_INT32",
                            "tensorShape": {
                                "dim": [
                                    {
                                        "size": "2"
                                    }
                                ]
                            }
                        }
                    },
                    "dtype": {
                        "type": "DT_INT32"
                    }
                }
            },
            {
                "name": "tf_bert_for_question_answering_1/bert/encoder/layer_._9/attention/self/query/Tensordot/GatherV2/axis",
                "op": "Const",
                "attr": {
                    "value": {
                        "tensor": {
                            "dtype": "DT_INT32",
                            "tensorShape": {}
                        }
                    },
                    "dtype": {
                        "type": "DT_INT32"
                    }
                }
            },
            {
                "name": "tf_bert_for_question_answering_1/bert/encoder/layer_._9/attention/self/query/Tensordot/Const_2",
                "op": "Const",
                "attr": {
                    "dtype": {
                        "type": "DT_INT32"
                    },
                    "value": {
                        "tensor": {
                            "dtype": "DT_INT32",
                            "tensorShape": {
                                "dim": [
                                    {
                                        "size": "1"
                                    }
                                ]
                            }
…
                },
                {
                    "name": "tf_bert_for_question_answering_1/bert/encoder/layer_._0/attention/output/dense/Tensordot/axes",
                    "shape": [
                        1
                    ],
                    "dtype": "int32"
                },
                {
                    "name": "tf_bert_for_question_answering_1/bert/encoder/layer_._0/attention/output/dense/Tensordot/GatherV2_1/axis",
                    "shape": [],
                    "dtype": "int32"
                },
                {
                    "name": "tf_bert_for_question_answering_1/bert/encoder/layer_._0/attention/output/dense/Tensordot/Const_1",
                    "shape": [
                        1
                    ],
                    "dtype": "int32"
                },
                {
                    "name": "tf_bert_for_question_answering_1/bert/encoder/layer_._0/attention/output/dense/Tensordot/ReadVariableOp",
                    "shape": [
                        768,
                        768
                    ],
                    "dtype": "float32"
                },
                {
                    "name": "tf_bert_for_question_answering_1/bert/encoder/layer_._0/attention/self/query/Tensordot/Const",
                    "shape": [
                        1
                    ],
                    "dtype": "int32"
                },
                {
                    "name": "tf_bert_for_question_answering_1/bert/encoder/layer_._0/attention/self/query/Tensordot/axes",
                    "shape": [
                        1
                    ],
                    "dtype": "int32"
                },
                {
                    "name": "tf_bert_for_question_answering_1/bert/encoder/layer_._0/attention/self/query/Tensordot/GatherV2_1/axis",
                    "shape": [],
                    "dtype": "int32"
                },
                {
                    "name": "tf_bert_for_question_answering_1/bert/encoder/layer_._0/attention/self/query/Tensordot/Const_1",
                    "shape": [
                        1
                    ],
                    "dtype": "int32"
                },
                {
                    "name": "tf_bert_for_question_answering_1/bert/encoder/layer_._0/attention/self/query/Tensordot/ReadVariableOp",
                    "shape": [
                        768,
                        768
                    ],
                    "dtype": "float32"
                },
                {
                    "name": "tf_bert_for_question_answering_1/bert/encoder/layer_._0/attention/self/query/Tensordot/free",
                    "shape": [
                        2
                    ],
                    "dtype": "int32"
                },
                {
                    "name": "tf_bert_for_question_answering_1/bert/encoder/layer_._0/attention/self/query/Tensordot/GatherV2/axis",
                    "shape": [],
                    "dtype": "int32"
                },
                {
                    "name": "tf_bert_for_question_answering_1/bert/encoder/layer_._0/attention/self/query/Tensordot/Const_2",
                    "shape": [
                        1
                    ],
                    "dtype": "int32"
                },
                {
                    "name": "tf_bert_for_question_answering_1/bert/encoder/layer_._0/attention/self/query/Tensordot/concat_1/axis",
                    "shape": [],
                    "dtype": "int32"
                },
                {
                    "name": "tf_bert_for_question_answering_1/bert/encoder/layer_._0/attention/self/query/BiasAdd/ReadVariableOp",
                    "shape": [
                        768
                    ],
                    "dtype": "float32"
                },
                {
                    "name": "tf_bert_for_question_answering_1/bert/encoder/layer_._0/attention/self/Reshape_2/shape/1",
                    "shape": [],
                    "dtype": "int32"
                },
                {
                    "name": "tf_bert_for_question_answering_1/bert/encoder/layer_._0/attention/self/Reshape_2/shape/2",
                    "shape": [],
                    "dtype": "int32"
                },
                {
                    "name": "tf_bert_for_question_answering_1/bert/encoder/layer_._0/attention/self/Reshape_2/shape/3",
                    "shape": [],
                    "dtype": "int32"
                },
                {
                    "name": "tf_bert_for_question_answering_1/bert/encoder/layer_._0/attention/self/transpose_2/perm",
                    "shape": [
                        4
                    ],
                    "dtype": "int32"
                },
                {
                    "name": "tf_bert_for_question_answering_1/bert/encoder/layer_._0/attention/self/key/Tensordot/Const",
                    "shape": [
                        1
                    ],
                    "dtype": "int32"
                },
                {
                    "name": "tf_bert_for_question_answering_1/bert/encoder/layer_._0/attention/self/key/Tensordot/axes",
                    "shape": [
                        1
                    ],
                    "dtype": "int32"
                },
                {
                    "name": "tf_bert_for_question_answering_1/bert/encoder/layer_._0/attention/self/key/Tensordot/GatherV2_1/axis",
                    "shape": [],
                    "dtype": "int32"
                },
                {
                    "name": "tf_bert_for_question_answering_1/bert/encoder/layer_._0/attention/self/key/Tensordot/Const_1",
                    "shape": [
                        1
                    ],
                    "dtype": "int32"
                },
                {
                    "name": "tf_bert_for_question_answering_1/bert/encoder/layer_._0/attention/self/key/Tensordot/ReadVariableOp",
                    "shape": [
                        768,
                        768
                    ],
                    "dtype": "float32"
                },
                {
                    "name": "tf_bert_for_question_answering_1/bert/encoder/layer_._0/attention/self/key/Tensordot/free",
                    "shape": [
                        2
                    ],
                    "dtype": "int32"
                },
                {
                    "name": "tf_bert_for_question_answering_1/bert/encoder/layer_._0/attention/self/key/Tensordot/GatherV2/axis",
                    "shape": [],
                    "dtype": "int32"
                },
                {
                    "name": "tf_bert_for_question_answering_1/bert/encoder/layer_._0/attention/self/key/Tensordot/Const_2",
                    "shape": [
                        1
                    ],
                    "dtype": "int32"
                },
                {
                    "name": "tf_bert_for_question_answering_1/bert/encoder/layer_._0/attention/self/key/Tensordot/concat_1/axis",
                    "shape": [],
                    "dtype": "int32"
                },
                {
                    "name": "tf_bert_for_question_answering_1/bert/encoder/layer_._0/attention/self/key/BiasAdd/ReadVariableOp",
                    "shape": [
                        768
                    ],
                    "dtype": "float32"
                },
                {
                    "name": "tf_bert_for_question_answering_1/bert/encoder/layer_._0/attention/self/Reshape/shape/1",
                    "shape": [],
                    "dtype": "int32"
                },
                {
                    "name": "tf_bert_for_question_answering_1/bert/encoder/layer_._0/attention/self/Reshape/shape/2",
                    "shape": [],
                    "dtype": "int32"
                },
                {
                    "name": "tf_bert_for_question_answering_1/bert/encoder/layer_._0/attention/self/Reshape/shape/3",
                    "shape": [],
                    "dtype": "int32"
                },
                {
                    "name": "tf_bert_for_question_answering_1/bert/encoder/layer_._0/attention/self/transpose/perm",
                    "shape": [
                        4
                    ],
                    "dtype": "int32"
                },
                {
                    "name": "ConstantFolding/tf_bert_for_question_answering_1/bert/encoder/layer_._0/attention/self/truediv_recip",
                    "shape": [],
                    "dtype": "float32"
                },
                {
                    "name": "tf_bert_for_question_answering_1/bert/encoder/layer_._0/attention/self/add_1/y",
                    "shape": [],
                    "dtype": "float32"
                },
                {
                    "name": "tf_bert_for_question_answering_1/bert/Const",
                    "shape": [],
                    "dtype": "float32"
                },
                {
                    "name": "tf_bert_for_question_answering_1/bert/strided_slice_2/stack",
                    "shape": [
                        1
                    ],
                    "dtype": "int32"
                },
                {
                    "name": "tf_bert_for_question_answering_1/bert/strided_slice_2/stack_1",
                    "shape": [
                        1
                    ],
                    "dtype": "int32"
                },
                {
                    "name": "tf_bert_for_question_answering_1/bert/strided_slice_2/stack_2",
                    "shape": [
                        1
                    ],
                    "dtype": "int32"
                },
                {
                    "name": "tf_bert_for_question_answering_1/bert/Reshape/shape/1",
                    "shape": [],
                    "dtype": "int32"
                },
                {
                    "name": "tf_bert_for_question_answering_1/bert/Reshape/shape/2",
                    "shape": [],
                    "dtype": "int32"
                },
                {
                    "name": "tf_bert_for_question_answering_1/bert/strided_slice_3/stack",
                    "shape": [
                        1
                    ],
                    "dtype": "int32"
                },
                {
                    "name": "tf_bert_for_question_answering_1/bert/strided_slice_3/stack_1",
                    "shape": [
                        1
                    ],
                    "dtype": "int32"
                },
                {
                    "name": "tf_bert_for_question_answering_1/bert/strided_slice_3/stack_2",
                    "shape": [
                        1
                    ],
                    "dtype": "int32"
                },
                {
                    "name": "tf_bert_for_question_answering_1/bert/Const_1",
                    "shape": [],
                    "dtype": "float32"
                },
                {
                    "name": "tf_bert_for_question_answering_1/bert/encoder/layer_._0/attention/self/value/Tensordot/Const",
                    "shape": [
                        1
                    ],
                    "dtype": "int32"
                },
                {
                    "name": "tf_bert_for_question_answering_1/bert/encoder/layer_._0/attention/self/value/Tensordot/axes",
                    "shape": [
                        1
                    ],
                    "dtype": "int32"
                },
                {
                    "name": "tf_bert_for_question_answering_1/bert/encoder/layer_._0/attention/self/value/Tensordot/GatherV2_1/axis",
                    "shape": [],
                    "dtype": "int32"
                },
                {
                    "name": "tf_bert_for_question_answering_1/bert/encoder/layer_._0/attention/self/value/Tensordot/Const_1",
                    "shape": [
                        1
                    ],
                    "dtype": "int32"
                },
                {
                    "name": "tf_bert_for_question_answering_1/bert/encoder/layer_._0/attention/self/value/Tensordot/ReadVariableOp",
                    "shape": [
                        768,
                        768
                    ],
                    "dtype": "float32"
                },
                {
                    "name": "tf_bert_for_question_answering_1/bert/encoder/layer_._0/attention/self/value/Tensordot/free",
                    "shape": [
                        2
                    ],
                    "dtype": "int32"
                },
                {
                    "name": "tf_bert_for_question_answering_1/bert/encoder/layer_._0/attention/self/value/Tensordot/GatherV2/axis",
                    "shape": [],
                    "dtype": "int32"
                },
                {
                    "name": "tf_bert_for_question_answering_1/bert/encoder/layer_._0/attention/self/value/Tensordot/Const_2",
                    "shape": [
                        1
                    ],
                    "dtype": "int32"
                },
                {
                    "name": "tf_bert_for_question_answering_1/bert/encoder/layer_._0/attention/self/value/Tensordot/concat_1/axis",
                    "shape": [],
                    "dtype": "int32"
                },
                {
                    "name": "tf_bert_for_question_answering_1/bert/encoder/layer_._0/attention/self/value/BiasAdd/ReadVariableOp",
                    "shape": [
                        768
                    ],
                    "dtype": "float32"
                },
                {
                    "name": "tf_bert_for_question_answering_1/bert/encoder/layer_._0/attention/self/Reshape_1/shape/1",
                    "shape": [],
                    "dtype": "int32"
                },
                {
                    "name": "tf_bert_for_question_answering_1/bert/encoder/layer_._0/attention/self/Reshape_1/shape/2",
                    "shape": [],
                    "dtype": "int32"
                },
                {
                    "name": "tf_bert_for_question_answering_1/bert/encoder/layer_._0/attention/self/Reshape_1/shape/3",
                    "shape": [],
                    "dtype": "int32"
                },
                {
                    "name": "tf_bert_for_question_answering_1/bert/encoder/layer_._0/attention/self/transpose_1/perm",
                    "shape": [
                        4
                    ],
                    "dtype": "int32"
                },
                {
                    "name": "tf_bert_for_question_answering_1/bert/encoder/layer_._0/attention/self/transpose_3/perm",
                    "shape": [
                        4
                    ],
                    "dtype": "int32"
                },
                {
                    "name": "tf_bert_for_question_answering_1/bert/encoder/layer_._0/attention/self/strided_slice/stack",
                    "shape": [
                        1
                    ],
                    "dtype": "int32"
                },
                {
                    "name": "tf_bert_for_question_answering_1/bert/encoder/layer_._0/attention/self/strided_slice/stack_1",
                    "shape": [
                        1
                    ],
                    "dtype": "int32"
                },
                {
                    "name": "tf_bert_for_question_answering_1/bert/encoder/layer_._0/attention/self/strided_slice/stack_2",
                    "shape": [
                        1
                    ],
                    "dtype": "int32"
                },
                {
                    "name": "tf_bert_for_question_answering_1/bert/encoder/layer_._0/attention/self/Reshape_3/shape/1",
                    "shape": [],
                    "dtype": "int32"
                },
                {
                    "name": "tf_bert_for_question_answering_1/bert/encoder/layer_._0/attention/self/Reshape_3/shape/2",
                    "shape": [],
                    "dtype": "int32"
                },
                {
                    "name": "tf_bert_for_question_answering_1/bert/encoder/layer_._0/attention/output/dense/Tensordot/free",
                    "shape": [
                        2
                    ],
                    "dtype": "int32"
                },
                {
                    "name": "tf_bert_for_question_answering_1/bert/encoder/layer_._0/attention/output/dense/Tensordot/GatherV2/axis",
                    "shape": [],
                    "dtype": "int32"
                },
                {
                    "name": "tf_bert_for_question_answering_1/bert/encoder/layer_._0/attention/output/dense/Tensordot/Const_2",
                    "shape": [
                        1
                    ],
                    "dtype": "int32"
                },
                {
                    "name": "tf_bert_for_question_answering_1/bert/encoder/layer_._0/attention/output/dense/Tensordot/concat_1/axis",
                    "shape": [],
                    "dtype": "int32"
                },
                {
                    "name": "tf_bert_for_question_answering_1/bert/encoder/layer_._0/attention/output/dense/BiasAdd/ReadVariableOp",
                    "shape": [
                        768
                    ],
                    "dtype": "float32"
                },
                {
                    "name": "tf_bert_for_question_answering_1/bert/embeddings/LayerNorm/batchnorm/ReadVariableOp",
                    "shape": [
                        768
                    ],
                    "dtype": "float32"
                },
                {
                    "name": "tf_bert_for_question_answering_1/bert/embeddings/Gather_1/resource",
                    "shape": [
                        512,
                        768
                    ],
                    "dtype": "float32"
                },
                {
                    "name": "tf_bert_for_question_answering_1/bert/embeddings/range/start",
                    "shape": [],
                    "dtype": "int32"
                },
                {
                    "name": "tf_bert_for_question_answering_1/bert/embeddings/Gather/resource",
                    "shape": [
                        28996,
                        768
                    ],
                    "dtype": "float32"
                },
                {
                    "name": "tf_bert_for_question_answering_1/bert/embeddings/Gather/axis",
                    "shape": [],
                    "dtype": "int32"
                },
                {
                    "name": "tf_bert_for_question_answering_1/bert/embeddings/strided_slice_1/stack",
                    "shape": [
                        1
                    ],
                    "dtype": "int32"
                },
                {
                    "name": "tf_bert_for_question_answering_1/bert/embeddings/strided_slice_1/stack_1",
                    "shape": [
                        1
                    ],
                    "dtype": "int32"
                },
                {
                    "name": "tf_bert_for_question_answering_1/bert/embeddings/strided_slice_1/stack_2",
                    "shape": [
                        1
                    ],
                    "dtype": "int32"
                },
                {
                    "name": "tf_bert_for_question_answering_1/bert/embeddings/range/delta",
                    "shape": [],
                    "dtype": "int32"
                },
                {
                    "name": "tf_bert_for_question_answering_1/bert/embeddings/ExpandDims/dim",
                    "shape": [],
                    "dtype": "int32"
                },
                {
                    "name": "tf_bert_for_question_answering_1/bert/embeddings/Gather_1/axis",
                    "shape": [],
                    "dtype": "int32"
                },
                {
                    "name": "tf_bert_for_question_answering_1/bert/embeddings/Gather_2/resource",
                    "shape": [
                        2,
                        768
                    ],
                    "dtype": "float32"
                },
                {
                    "name": "tf_bert_for_question_answering_1/bert/embeddings/Gather_2/axis",
                    "shape": [],
                    "dtype": "int32"
                },
                {
                    "name": "tf_bert_for_question_answering_1/bert/embeddings/LayerNorm/moments/mean/reduction_indices",
                    "shape": [
                        1
                    ],
                    "dtype": "int32"
                },
                {
                    "name": "tf_bert_for_question_answering_1/bert/embeddings/LayerNorm/moments/variance/reduction_indices",
                    "shape": [
                        1
                    ],
                    "dtype": "int32"
                },
                {
                    "name": "tf_bert_for_question_answering_1/bert/embeddings/LayerNorm/batchnorm/add/y",
                    "shape": [],
                    "dtype": "float32"
                },
                {
                    "name": "tf_bert_for_question_answering_1/bert/embeddings/LayerNorm/batchnorm/mul/ReadVariableOp",
                    "shape": [
                        768
                    ],
                    "dtype": "float32"
                },
                {
                    "name": "tf_bert_for_question_answering_1/bert/encoder/layer_._0/attention/output/LayerNorm/moments/mean/reduction_indices",
                    "shape": [
                        1
                    ],
                    "dtype": "int32"
                },
                {
                    "name": "tf_bert_for_question_answering_1/bert/encoder/layer_._0/attention/output/LayerNorm/moments/variance/reduction_indices",
                    "shape": [
                        1
                    ],
                    "dtype": "int32"
                },
                {
                    "name": "tf_bert_for_question_answering_1/bert/encoder/layer_._0/attention/output/LayerNorm/batchnorm/add/y",
                    "shape": [],
                    "dtype": "float32"
                },
                {
                    "name": "tf_bert_for_question_answering_1/bert/encoder/layer_._0/attention/output/LayerNorm/batchnorm/mul/ReadVariableOp",
                    "shape": [
                        768
                    ],
                    "dtype": "float32"
                },
                {
                    "name": "tf_bert_for_question_answering_1/bert/encoder/layer_._0/output/LayerNorm/moments/mean/reduction_indices",
                    "shape": [
                        1
                    ],
                    "dtype": "int32"
                },
                {
                    "name": "tf_bert_for_question_answering_1/bert/encoder/layer_._0/output/LayerNorm/moments/variance/reduction_indices",
                    "shape": [
                        1
                    ],
                    "dtype": "int32"
                },
                {
                    "name": "tf_bert_for_question_answering_1/bert/encoder/layer_._0/output/LayerNorm/batchnorm/add/y",
                    "shape": [],
                    "dtype": "float32"
                },
                {
                    "name": "tf_bert_for_question_answering_1/bert/encoder/layer_._0/output/LayerNorm/batchnorm/mul/ReadVariableOp",
                    "shape": [
                        768
                    ],
                    "dtype": "float32"
                },
                {
                    "name": "tf_bert_for_question_answering_1/bert/encoder/layer_._1/attention/output/LayerNorm/moments/mean/reduction_indices",
                    "shape": [
                        1
                    ],
                    "dtype": "int32"
                },
                {
                    "name": "tf_bert_for_question_answering_1/bert/encoder/layer_._1/attention/output/LayerNorm/moments/variance/reduction_indices",
                    "shape": [
                        1
                    ],
                    "dtype": "int32"
                },
                {
                    "name": "tf_bert_for_question_answering_1/bert/encoder/layer_._1/attention/output/LayerNorm/batchnorm/add/y",
                    "shape": [],
                    "dtype": "float32"
                },
                {
                    "name": "tf_bert_for_question_answering_1/bert/encoder/layer_._1/attention/output/LayerNorm/batchnorm/mul/ReadVariableOp",
                    "shape": [
                        768
                    ],
                    "dtype": "float32"
                },
                {
                    "name": "tf_bert_for_question_answering_1/bert/encoder/layer_._1/output/LayerNorm/moments/mean/reduction_indices",
                    "shape": [
                        1
                    ],
                    "dtype": "int32"
                },
                {
                    "name": "tf_bert_for_question_answering_1/bert/encoder/layer_._1/output/LayerNorm/moments/variance/reduction_indices",
                    "shape": [
                        1
                    ],
                    "dtype": "int32"
                },
                {
                    "name": "tf_bert_for_question_answering_1/bert/encoder/layer_._1/output/LayerNorm/batchnorm/add/y",
                    "shape": [],
                    "dtype": "float32"
                },
                {
                    "name": "tf_bert_for_question_answering_1/bert/encoder/layer_._1/output/LayerNorm/batchnorm/mul/ReadVariableOp",
                    "shape": [
                        768
                    ],
                    "dtype": "float32"
                },
                {
                    "name": "tf_bert_for_question_answering_1/bert/encoder/layer_._2/attention/output/LayerNorm/moments/mean/reduction_indices",
                    "shape": [
                        1
                    ],
                    "dtype": "int32"
                },
                {
                    "name": "tf_bert_for_question_answering_1/bert/encoder/layer_._2/attention/output/LayerNorm/moments/variance/reduction_indices",
                    "shape": [
                        1
                    ],
                    "dtype": "int32"
                },
                {
                    "name": "tf_bert_for_question_answering_1/bert/encoder/layer_._2/attention/output/LayerNorm/batchnorm/add/y",
                    "shape": [],
                    "dtype": "float32"
                },
                {
                    "name": "tf_bert_for_question_answering_1/bert/encoder/layer_._2/attention/output/LayerNorm/batchnorm/mul/ReadVariableOp",
                    "shape": [
                        768
                    ],
                    "dtype": "float32"
                },
                {
                    "name": "tf_bert_for_question_answering_1/bert/encoder/layer_._2/output/LayerNorm/moments/mean/reduction_indices",
                    "shape": [
                        1
                    ],
                    "dtype": "int32"
                },
                {
                    "name": "tf_bert_for_question_answering_1/bert/encoder/layer_._2/output/LayerNorm/moments/variance/reduction_indices",
                    "shape": [
                        1
                    ],
                    "dtype": "int32"
                },
                {
                    "name": "tf_bert_for_question_answering_1/bert/encoder/layer_._2/output/LayerNorm/batchnorm/add/y",
                    "shape": [],
                    "dtype": "float32"
                },
                {
                    "name": "tf_bert_for_question_answering_1/bert/encoder/layer_._2/output/LayerNorm/batchnorm/mul/ReadVariableOp",
                    "shape": [
                        768
                    ],
                    "dtype": "float32"
                },
                {
                    "name": "tf_bert_for_question_answering_1/bert/encoder/layer_._3/attention/output/LayerNorm/moments/mean/reduction_indices",
                    "shape": [
                        1
                    ],
                    "dtype": "int32"
                },
                {
                    "name": "tf_bert_for_question_answering_1/bert/encoder/layer_._3/attention/output/LayerNorm/moments/variance/reduction_indices",
                    "shape": [
                        1
                    ],
                    "dtype": "int32"
                },
                {
                    "name": "tf_bert_for_question_answering_1/bert/encoder/layer_._3/attention/output/LayerNorm/batchnorm/add/y",
                    "shape": [],
                    "dtype": "float32"
                },
                {
                    "name": "tf_bert_for_question_answering_1/bert/encoder/layer_._3/attention/output/LayerNorm/batchnorm/mul/ReadVariableOp",
                    "shape": [
                        768
                    ],
                    "dtype": "float32"
                },
                {
                    "name": "tf_bert_for_question_answering_1/bert/encoder/layer_._3/output/LayerNorm/moments/mean/reduction_indices",
                    "shape": [
                        1
                    ],
                    "dtype": "int32"
                },
                {
                    "name": "tf_bert_for_question_answering_1/bert/encoder/layer_._3/output/LayerNorm/moments/variance/reduction_indices",
                    "shape": [
                        1
                    ],
                    "dtype": "int32"
                },
                {
                    "name": "tf_bert_for_question_answering_1/bert/encoder/layer_._3/output/LayerNorm/batchnorm/add/y",
                    "shape": [],
                    "dtype": "float32"
                },
                {
                    "name": "tf_bert_for_question_answering_1/bert/encoder/layer_._3/output/LayerNorm/batchnorm/mul/ReadVariableOp",
                    "shape": [
                        768
                    ],
                    "dtype": "float32"
                },
                {
                    "name": "tf_bert_for_question_answering_1/bert/encoder/layer_._4/attention/output/LayerNorm/moments/mean/reduction_indices",
                    "shape": [
                        1
                    ],
                    "dtype": "int32"
                },
                {
                    "name": "tf_bert_for_question_answering_1/bert/encoder/layer_._4/attention/output/LayerNorm/moments/variance/reduction_indices",
                    "shape": [
                        1
                    ],
                    "dtype": "int32"
                },
                {
                    "name": "tf_bert_for_question_answering_1/bert/encoder/layer_._4/attention/output/LayerNorm/batchnorm/add/y",
                    "shape": [],
                    "dtype": "float32"
                },
                {
                    "name": "tf_bert_for_question_answering_1/bert/encoder/layer_._4/attention/output/LayerNorm/batchnorm/mul/ReadVariableOp",
                    "shape": [
                        768
                    ],
                    "dtype": "float32"
                },
                {
                    "name": "tf_bert_for_question_answering_1/bert/encoder/layer_._4/output/LayerNorm/moments/mean/reduction_indices",
                    "shape": [
                        1
                    ],
                    "dtype": "int32"
                },
                {
                    "name": "tf_bert_for_question_answering_1/bert/encoder/layer_._4/output/LayerNorm/moments/variance/reduction_indices",
                    "shape": [
                        1
                    ],
                    "dtype": "int32"
                },
                {
                    "name": "tf_bert_for_question_answering_1/bert/encoder/layer_._4/output/LayerNorm/batchnorm/add/y",
                    "shape": [],
                    "dtype": "float32"
                },
                {
                    "name": "tf_bert_for_question_answering_1/bert/encoder/layer_._4/output/LayerNorm/batchnorm/mul/ReadVariableOp",
                    "shape": [
                        768
                    ],
                    "dtype": "float32"
                },
                {
                    "name": "tf_bert_for_question_answering_1/bert/encoder/layer_._5/attention/output/LayerNorm/moments/mean/reduction_indices",
                    "shape": [
                        1
                    ],
                    "dtype": "int32"
                },
                {
                    "name": "tf_bert_for_question_answering_1/bert/encoder/layer_._5/attention/output/LayerNorm/moments/variance/reduction_indices",
                    "shape": [
                        1
                    ],
                    "dtype": "int32"
                },
                {
                    "name": "tf_bert_for_question_answering_1/bert/encoder/layer_._5/attention/output/LayerNorm/batchnorm/add/y",
                    "shape": [],
                    "dtype": "float32"
                },
                {
                    "name": "tf_bert_for_question_answering_1/bert/encoder/layer_._5/attention/output/LayerNorm/batchnorm/mul/ReadVariableOp",
                    "shape": [
                        768
                    ],
                    "dtype": "float32"
                },
                {
                    "name": "tf_bert_for_question_answering_1/bert/encoder/layer_._5/output/LayerNorm/moments/mean/reduction_indices",
                    "shape": [
                        1
                    ],
                    "dtype": "int32"
                },
                {
                    "name": "tf_bert_for_question_answering_1/bert/encoder/layer_._5/output/LayerNorm/moments/variance/reduction_indices",
                    "shape": [
                        1
                    ],
                    "dtype": "int32"
                },
                {
                    "name": "tf_bert_for_question_answering_1/bert/encoder/layer_._5/output/LayerNorm/batchnorm/add/y",
                    "shape": [],
                    "dtype": "float32"
                },
                {
                    "name": "tf_bert_for_question_answering_1/bert/encoder/layer_._5/output/LayerNorm/batchnorm/mul/ReadVariableOp",
                    "shape": [
                        768
                    ],
                    "dtype": "float32"
                },
                {
                    "name": "tf_bert_for_question_answering_1/bert/encoder/layer_._6/attention/output/LayerNorm/moments/mean/reduction_indices",
                    "shape": [
                        1
                    ],
                    "dtype": "int32"
                },
                {
                    "name": "tf_bert_for_question_answering_1/bert/encoder/layer_._6/attention/output/LayerNorm/moments/variance/reduction_indices",
                    "shape": [
                        1
                    ],
                    "dtype": "int32"
                },
                {
                    "name": "tf_bert_for_question_answering_1/bert/encoder/layer_._6/attention/output/LayerNorm/batchnorm/add/y",
                    "shape": [],
                    "dtype": "float32"
                },
                {
                    "name": "tf_bert_for_question_answering_1/bert/encoder/layer_._6/attention/output/LayerNorm/batchnorm/mul/ReadVariableOp",
                    "shape": [
                        768
                    ],
                    "dtype": "float32"
                },
                {
                    "name": "tf_bert_for_question_answering_1/bert/encoder/layer_._6/output/LayerNorm/moments/mean/reduction_indices",
                    "shape": [
                        1
                    ],
                    "dtype": "int32"
                },
                {
                    "name": "tf_bert_for_question_answering_1/bert/encoder/layer_._6/output/LayerNorm/moments/variance/reduction_indices",
                    "shape": [
                        1
                    ],
                    "dtype": "int32"
                },
                {
                    "name": "tf_bert_for_question_answering_1/bert/encoder/layer_._6/output/LayerNorm/batchnorm/add/y",
                    "shape": [],
                    "dtype": "float32"
                },
                {
                    "name": "tf_bert_for_question_answering_1/bert/encoder/layer_._6/output/LayerNorm/batchnorm/mul/ReadVariableOp",
                    "shape": [
                        768
                    ],
                    "dtype": "float32"
                },
                {
                    "name": "tf_bert_for_question_answering_1/bert/encoder/layer_._7/attention/output/LayerNorm/moments/mean/reduction_indices",
                    "shape": [
                        1
                    ],
                    "dtype": "int32"
                },
                {
                    "name": "tf_bert_for_question_answering_1/bert/encoder/layer_._7/attention/output/LayerNorm/moments/variance/reduction_indices",
                    "shape": [
                        1
                    ],
                    "dtype": "int32"
                },
                {
                    "name": "tf_bert_for_question_answering_1/bert/encoder/layer_._7/attention/output/LayerNorm/batchnorm/add/y",
                    "shape": [],
                    "dtype": "float32"
                },
                {
                    "name": "tf_bert_for_question_answering_1/bert/encoder/layer_._7/attention/output/LayerNorm/batchnorm/mul/ReadVariableOp",
                    "shape": [
                        768
                    ],
                    "dtype": "float32"
                },
                {
                    "name": "tf_bert_for_question_answering_1/bert/encoder/layer_._7/output/LayerNorm/moments/mean/reduction_indices",
                    "shape": [
                        1
                    ],
                    "dtype": "int32"
                },
                {
                    "name": "tf_bert_for_question_answering_1/bert/encoder/layer_._7/output/LayerNorm/moments/variance/reduction_indices",
                    "shape": [
                        1
                    ],
                    "dtype": "int32"
                },
                {
                    "name": "tf_bert_for_question_answering_1/bert/encoder/layer_._7/output/LayerNorm/batchnorm/add/y",
                    "shape": [],
                    "dtype": "float32"
                },
                {
                    "name": "tf_bert_for_question_answering_1/bert/encoder/layer_._7/output/LayerNorm/batchnorm/mul/ReadVariableOp",
                    "shape": [
                        768
                    ],
                    "dtype": "float32"
                },
                {
                    "name": "tf_bert_for_question_answering_1/bert/encoder/layer_._8/attention/output/LayerNorm/moments/mean/reduction_indices",
                    "shape": [
                        1
                    ],
                    "dtype": "int32"
                },
                {
                    "name": "tf_bert_for_question_answering_1/bert/encoder/layer_._8/attention/output/LayerNorm/moments/variance/reduction_indices",
                    "shape": [
                        1
                    ],
                    "dtype": "int32"
                },
                {
                    "name": "tf_bert_for_question_answering_1/bert/encoder/layer_._8/attention/output/LayerNorm/batchnorm/add/y",
                    "shape": [],
                    "dtype": "float32"
                },
                {
                    "name": "tf_bert_for_question_answering_1/bert/encoder/layer_._8/attention/output/LayerNorm/batchnorm/mul/ReadVariableOp",
                    "shape": [
                        768
                    ],
                    "dtype": "float32"
                },
                {
                    "name": "tf_bert_for_question_answering_1/bert/encoder/layer_._8/output/LayerNorm/moments/mean/reduction_indices",
                    "shape": [
                        1
                    ],
                    "dtype": "int32"
                },
                {
                    "name": "tf_bert_for_question_answering_1/bert/encoder/layer_._8/output/LayerNorm/moments/variance/reduction_indices",
                    "shape": [
                        1
                    ],
                    "dtype": "int32"
                },
                {
                    "name": "tf_bert_for_question_answering_1/bert/encoder/layer_._8/output/LayerNorm/batchnorm/add/y",
                    "shape": [],
                    "dtype": "float32"
                },
                {
                    "name": "tf_bert_for_question_answering_1/bert/encoder/layer_._8/output/LayerNorm/batchnorm/mul/ReadVariableOp",
                    "shape": [
                        768
                    ],
                    "dtype": "float32"
                },
                {
                    "name": "tf_bert_for_question_answering_1/bert/encoder/layer_._9/attention/output/LayerNorm/moments/mean/reduction_indices",
                    "shape": [
                        1
                    ],
                    "dtype": "int32"
                },
                {
                    "name": "tf_bert_for_question_answering_1/bert/encoder/layer_._9/attention/output/LayerNorm/moments/variance/reduction_indices",
                    "shape": [
                        1
                    ],
                    "dtype": "int32"
                },
                {
                    "name": "tf_bert_for_question_answering_1/bert/encoder/layer_._9/attention/output/LayerNorm/batchnorm/add/y",
                    "shape": [],
                    "dtype": "float32"
                },
                {
                    "name": "tf_bert_for_question_answering_1/bert/encoder/layer_._9/attention/output/LayerNorm/batchnorm/mul/ReadVariableOp",
                    "shape": [
                        768
                    ],
                    "dtype": "float32"
                },
                {
                    "name": "tf_bert_for_question_answering_1/bert/encoder/layer_._9/output/LayerNorm/moments/mean/reduction_indices",
                    "shape": [
                        1
                    ],
                    "dtype": "int32"
                },
                {
                    "name": "tf_bert_for_question_answering_1/bert/encoder/layer_._9/output/LayerNorm/moments/variance/reduction_indices",
                    "shape": [
                        1
                    ],
                    "dtype": "int32"
                },
                {
                    "name": "tf_bert_for_question_answering_1/bert/encoder/layer_._9/output/LayerNorm/batchnorm/add/y",
                    "shape": [],
                    "dtype": "float32"
                },
                {
                    "name": "tf_bert_for_question_answering_1/bert/encoder/layer_._9/output/LayerNorm/batchnorm/mul/ReadVariableOp",
                    "shape": [
                        768
                    ],
                    "dtype": "float32"
                },
                {
                    "name": "tf_bert_for_question_answering_1/bert/encoder/layer_._10/attention/output/LayerNorm/moments/mean/reduction_indices",
                    "shape": [
                        1
                    ],
                    "dtype": "int32"
                },
                {
                    "name": "tf_bert_for_question_answering_1/bert/encoder/layer_._10/attention/output/LayerNorm/moments/variance/reduction_indices",
                    "shape": [
                        1
                    ],
                    "dtype": "int32"
                },
                {
                    "name": "tf_bert_for_question_answering_1/bert/encoder/layer_._10/attention/output/LayerNorm/batchnorm/add/y",
                    "shape": [],
                    "dtype": "float32"
                },
                {
                    "name": "tf_bert_for_question_answering_1/bert/encoder/layer_._10/attention/output/LayerNorm/batchnorm/mul/ReadVariableOp",
                    "shape": [
                        768
                    ],
                    "dtype": "float32"
                },
                {
                    "name": "tf_bert_for_question_answering_1/bert/encoder/layer_._10/output/LayerNorm/moments/mean/reduction_indices",
                    "shape": [
                        1
                    ],
                    "dtype": "int32"
                },
                {
                    "name": "tf_bert_for_question_answering_1/bert/encoder/layer_._10/output/LayerNorm/moments/variance/reduction_indices",
                    "shape": [
                        1
                    ],
                    "dtype": "int32"
                },
                {
                    "name": "tf_bert_for_question_answering_1/bert/encoder/layer_._10/output/LayerNorm/batchnorm/add/y",
                    "shape": [],
                    "dtype": "float32"
                },
                {
                    "name": "tf_bert_for_question_answering_1/bert/encoder/layer_._10/output/LayerNorm/batchnorm/mul/ReadVariableOp",
                    "shape": [
                        768
                    ],
                    "dtype": "float32"
                },
                {
                    "name": "tf_bert_for_question_answering_1/bert/encoder/layer_._11/attention/output/LayerNorm/moments/mean/reduction_indices",
                    "shape": [
                        1
                    ],
                    "dtype": "int32"
                },
                {
                    "name": "tf_bert_for_question_answering_1/bert/encoder/layer_._11/attention/output/LayerNorm/moments/variance/reduction_indices",
                    "shape": [
                        1
                    ],
                    "dtype": "int32"
                },
                {
                    "name": "tf_bert_for_question_answering_1/bert/encoder/layer_._11/attention/output/LayerNorm/batchnorm/add/y",
                    "shape": [],
                    "dtype": "float32"
                },
                {
                    "name": "tf_bert_for_question_answering_1/bert/encoder/layer_._11/attention/output/LayerNorm/batchnorm/mul/ReadVariableOp",
                    "shape": [
                        768
                    ],
                    "dtype": "float32"
                },
                {
                    "name": "tf_bert_for_question_answering_1/bert/encoder/layer_._11/output/LayerNorm/moments/mean/reduction_indices",
                    "shape": [
                        1
                    ],
                    "dtype": "int32"
                },
                {
                    "name": "tf_bert_for_question_answering_1/bert/encoder/layer_._11/output/LayerNorm/moments/variance/reduction_indices",
                    "shape": [
                        1
                    ],
                    "dtype": "int32"
                },
                {
                    "name": "tf_bert_for_question_answering_1/bert/encoder/layer_._11/output/LayerNorm/batchnorm/add/y",
                    "shape": [],
                    "dtype": "float32"
                },
                {
                    "name": "tf_bert_for_question_answering_1/bert/encoder/layer_._11/output/LayerNorm/batchnorm/mul/ReadVariableOp",
                    "shape": [
                        768
                    ],
                    "dtype": "float32"
                },
                {
                    "name": "tf_bert_for_question_answering_1/qa_outputs/Tensordot/free",
                    "shape": [
                        2
                    ],
                    "dtype": "int32"
                },
                {
                    "name": "tf_bert_for_question_answering_1/qa_outputs/Tensordot/GatherV2/axis",
                    "shape": [],
                    "dtype": "int32"
                },
                {
                    "name": "tf_bert_for_question_answering_1/qa_outputs/Tensordot/Const_2",
                    "shape": [
                        1
                    ],
                    "dtype": "int32"
                },
                {
                    "name": "tf_bert_for_question_answering_1/qa_outputs/Tensordot/concat_1/axis",
                    "shape": [],
                    "dtype": "int32"
                },
                {
                    "name": "tf_bert_for_question_answering_1/qa_outputs/BiasAdd/ReadVariableOp",
                    "shape": [
                        2
                    ],
                    "dtype": "float32"
                }
            ]
        }
    ]
}